{"format": "graph-model", "generatedBy": "2.8.0", "convertedBy": "TensorFlow.js Converter v3.15.0", "signature": {"inputs": {"input_1": {"name": "input_1:0", "dtype": "DT_FLOAT", "tensorShape": {"dim": [{"size": "-1"}, {"size": "32"}, {"size": "32"}, {"size": "3"}]}}}, "outputs": {"dense": {"name": "Identity:0", "dtype": "DT_FLOAT", "tensorShape": {"dim": [{"size": "-1"}, {"size": "10"}]}}}}, "modelTopology": {"node": [{"name": "StatefulPartitionedCall/model/conv5_block1_0_conv/Conv2D/ReadVariableOp", "op": "Const", "attr": {"value": {"tensor": {"dtype": "DT_FLOAT", "tensorShape": {"dim": [{"size": "1"}, {"size": "1"}, {"size": "1024"}, {"size": "2048"}]}}}, "dtype": {"type": "DT_FLOAT"}}}, {"name": "StatefulPartitionedCall/model/conv5_block1_0_conv/BiasAdd/ReadVariableOp", "op": "Const", "attr": {"dtype": {"type": "DT_FLOAT"}, "value": {"tensor": {"dtype": "DT_FLOAT", "tensorShape": {"dim": [{"size": "2048"}]}}}}}, {"name": "StatefulPartitionedCall/model/conv4_block1_0_conv/Conv2D/ReadVariableOp", "op": "Const", "attr": {"dtype": {"type": "DT_FLOAT"}, "value": {"tensor": {"dtype": "DT_FLOAT", "tensorShape": {"dim": [{"size": "1"}, {"size": "1"}, {"size": "512"}, {"size": "1024"}]}}}}}, {"name": "StatefulPartitionedCall/model/conv4_block1_0_conv/BiasAdd/ReadVariableOp", "op": "Const", "attr": {"value": {"tensor": {"dtype": "DT_FLOAT", "tensorShape": {"dim": [{"size": "1024"}]}}}, "dtype": {"type": "DT_FLOAT"}}}, {"name": "StatefulPartitionedCall/model/conv3_block1_0_conv/Conv2D/ReadVariableOp", "op": "Const", "attr": {"dtype": {"type": "DT_FLOAT"}, "value": {"tensor": {"dtype": "DT_FLOAT", "tensorShape": {"dim": [{"size": "1"}, {"size": "1"}, {"size": "256"}, {"size": "512"}]}}}}}, {"name": "StatefulPartitionedCall/model/conv3_block1_0_conv/BiasAdd/ReadVariableOp", "op": "Const", "attr": {"value": {"tensor": {"dtype": "DT_FLOAT", "tensorShape": {"dim": [{"size": "512"}]}}}, "dtype": {"type": "DT_FLOAT"}}}, {"name": "StatefulPartitionedCall/model/conv2_block1_0_conv/Conv2D/ReadVariableOp", "op": "Const", "attr": {"dtype": {"type": "DT_FLOAT"}, "value": {"tensor": {"dtype": "DT_FLOAT", "tensorShape": {"dim": [{"size": "1"}, {"size": "1"}, {"size": "64"}, {"size": "256"}]}}}}}, {"name": "StatefulPartitionedCall/model/conv2_block1_0_conv/BiasAdd/ReadVariableOp", "op": "Const", "attr": {"value": {"tensor": {"dtype": "DT_FLOAT", "tensorShape": {"dim": [{"size": "256"}]}}}, "dtype": {"type": "DT_FLOAT"}}}, {"name": "StatefulPartitionedCall/model/conv1_pad/Pad/paddings", "op": "Const", "attr": {"dtype": {"type": "DT_INT32"}, "value": {"tensor": {"dtype": "DT_INT32", "tensorShape": {"dim": [{"size": "4"}, {"size": "2"}]}}}}}, {"name": "StatefulPartitionedCall/model/conv1_conv/Conv2D/ReadVariableOp", "op": "Const", "attr": {"value": {"tensor": {"dtype": "DT_FLOAT", "tensorShape": {"dim": [{"size": "7"}, {"size": "7"}, {"size": "3"}, {"size": "64"}]}}}, "dtype": {"type": "DT_FLOAT"}}}, {"name": "StatefulPartitionedCall/model/conv1_conv/BiasAdd/ReadVariableOp", "op": "Const", "attr": {"value": {"tensor": {"dtype": "DT_FLOAT", "tensorShape": {"dim": [{"size": "64"}]}}}, "dtype": {"type": "DT_FLOAT"}}}, {"name": "StatefulPartitionedCall/model/pool1_pad/Pad/paddings", "op": "Const", "attr": {"value": {"tensor": {"dtype": "DT_INT32", "tensorShape": {"dim": [{"size": "4"}, {"size": "2"}]}}}, "dtype": {"type": "DT_INT32"}}}, {"name": "StatefulPartitionedCall/model/conv2_block1_2_pad/Pad/paddings", "op": "Const", "attr": {"dtype": {"type": "DT_INT32"}, "value": {"tensor": {"dtype": "DT_INT32", "tensorShape": {"dim": [{"size": "4"}, {"size": "2"}]}}}}}, {"name": "StatefulPartitionedCall/model/conv2_block1_3_conv/Conv2D/ReadVariableOp", "op": "Const", "attr": {"dtype": {"type": "DT_FLOAT"}, "value": {"tensor": {"dtype": "DT_FLOAT", "tensorShape": {"dim": [{"size": "1"}, {"size": "1"}, {"size": "64"}, {"size": "256"}]}}}}}, {"name": "StatefulPartitionedCall/model/conv2_block1_3_conv/BiasAdd/ReadVariableOp", "op": "Const", "attr": {"value": {"tensor": {"dtype": "DT_FLOAT", "tensorShape": {"dim": [{"size": "256"}]}}}, "dtype": {"type": "DT_FLOAT"}}}, {"name": "StatefulPartitionedCall/model/conv2_block2_2_pad/Pad/paddings", "op": "Const", "attr": {"dtype": {"type": "DT_INT32"}, "value": {"tensor": {"dtype": "DT_INT32", "tensorShape": {"dim": [{"size": "4"}, {"size": "2"}]}}}}}, {"name": "StatefulPartitionedCall/model/conv2_block2_3_conv/Conv2D/ReadVariableOp", "op": "Const", "attr": {"dtype": {"type": "DT_FLOAT"}, "value": {"tensor": {"dtype": "DT_FLOAT", "tensorShape": {"dim": [{"size": "1"}, {"size": "1"}, {"size": "64"}, {"size": "256"}]}}}}}, {"name": "StatefulPartitionedCall/model/conv2_block2_3_conv/BiasAdd/ReadVariableOp", "op": "Const", "attr": {"dtype": {"type": "DT_FLOAT"}, "value": {"tensor": {"dtype": "DT_FLOAT", "tensorShape": {"dim": [{"size": "256"}]}}}}}, {"name": "StatefulPartitionedCall/model/conv2_block3_2_pad/Pad/paddings", "op": "Const", "attr": {"dtype": {"type": "DT_INT32"}, "value": {"tensor": {"dtype": "DT_INT32", "tensorShape": {"dim": [{"size": "4"}, {"size": "2"}]}}}}}, {"name": "StatefulPartitionedCall/model/conv2_block3_3_conv/Conv2D/ReadVariableOp", "op": "Const", "attr": {"value": {"tensor": {"dtype": "DT_FLOAT", "tensorShape": {"dim": [{"size": "1"}, {"size": "1"}, {"size": "64"}, {"size": "256"}]}}}, "dtype": {"type": "DT_FLOAT"}}}, {"name": "StatefulPartitionedCall/model/conv2_block3_3_conv/BiasAdd/ReadVariableOp", "op": "Const", "attr": {"value": {"tensor": {"dtype": "DT_FLOAT", "tensorShape": {"dim": [{"size": "256"}]}}}, "dtype": {"type": "DT_FLOAT"}}}, {"name": "StatefulPartitionedCall/model/conv3_block1_2_pad/Pad/paddings", "op": "Const", "attr": {"value": {"tensor": {"dtype": "DT_INT32", "tensorShape": {"dim": [{"size": "4"}, {"size": "2"}]}}}, "dtype": {"type": "DT_INT32"}}}, {"name": "StatefulPartitionedCall/model/conv3_block1_3_conv/Conv2D/ReadVariableOp", "op": "Const", "attr": {"value": {"tensor": {"dtype": "DT_FLOAT", "tensorShape": {"dim": [{"size": "1"}, {"size": "1"}, {"size": "128"}, {"size": "512"}]}}}, "dtype": {"type": "DT_FLOAT"}}}, {"name": "StatefulPartitionedCall/model/conv3_block1_3_conv/BiasAdd/ReadVariableOp", "op": "Const", "attr": {"value": {"tensor": {"dtype": "DT_FLOAT", "tensorShape": {"dim": [{"size": "512"}]}}}, "dtype": {"type": "DT_FLOAT"}}}, {"name": "StatefulPartitionedCall/model/conv3_block2_2_pad/Pad/paddings", "op": "Const", "attr": {"value": {"tensor": {"dtype": "DT_INT32", "tensorShape": {"dim": [{"size": "4"}, {"size": "2"}]}}}, "dtype": {"type": "DT_INT32"}}}, {"name": "StatefulPartitionedCall/model/conv3_block2_3_conv/Conv2D/ReadVariableOp", "op": "Const", "attr": {"value": {"tensor": {"dtype": "DT_FLOAT", "tensorShape": {"dim": [{"size": "1"}, {"size": "1"}, {"size": "128"}, {"size": "512"}]}}}, "dtype": {"type": "DT_FLOAT"}}}, {"name": "StatefulPartitionedCall/model/conv3_block2_3_conv/BiasAdd/ReadVariableOp", "op": "Const", "attr": {"value": {"tensor": {"dtype": "DT_FLOAT", "tensorShape": {"dim": [{"size": "512"}]}}}, "dtype": {"type": "DT_FLOAT"}}}, {"name": "StatefulPartitionedCall/model/conv3_block3_2_pad/Pad/paddings", "op": "Const", "attr": {"value": {"tensor": {"dtype": "DT_INT32", "tensorShape": {"dim": [{"size": "4"}, {"size": "2"}]}}}, "dtype": {"type": "DT_INT32"}}}, {"name": "StatefulPartitionedCall/model/conv3_block3_3_conv/Conv2D/ReadVariableOp", "op": "Const", "attr": {"dtype": {"type": "DT_FLOAT"}, "value": {"tensor": {"dtype": "DT_FLOAT", "tensorShape": {"dim": [{"size": "1"}, {"size": "1"}, {"size": "128"}, {"size": "512"}]}}}}}, {"name": "StatefulPartitionedCall/model/conv3_block3_3_conv/BiasAdd/ReadVariableOp", "op": "Const", "attr": {"value": {"tensor": {"dtype": "DT_FLOAT", "tensorShape": {"dim": [{"size": "512"}]}}}, "dtype": {"type": "DT_FLOAT"}}}, {"name": "StatefulPartitionedCall/model/conv3_block4_2_pad/Pad/paddings", "op": "Const", "attr": {"value": {"tensor": {"dtype": "DT_INT32", "tensorShape": {"dim": [{"size": "4"}, {"size": "2"}]}}}, "dtype": {"type": "DT_INT32"}}}, {"name": "StatefulPartitionedCall/model/conv3_block4_3_conv/Conv2D/ReadVariableOp", "op": "Const", "attr": {"dtype": {"type": "DT_FLOAT"}, "value": {"tensor": {"dtype": "DT_FLOAT", "tensorShape": {"dim": [{"size": "1"}, {"size": "1"}, {"size": "128"}, {"size": "512"}]}}}}}, {"name": "StatefulPartitionedCall/model/conv3_block4_3_conv/BiasAdd/ReadVariableOp", "op": "Const", "attr": {"value": {"tensor": {"dtype": "DT_FLOAT", "tensorShape": {"dim": [{"size": "512"}]}}}, "dtype": {"type": "DT_FLOAT"}}}, {"name": "StatefulPartitionedCall/model/conv3_block5_2_pad/Pad/paddings", "op": "Const", "attr": {"dtype": {"type": "DT_INT32"}, "value": {"tensor": {"dtype": "DT_INT32", "tensorShape": {"dim": [{"size": "4"}, {"size": "2"}]}}}}}, {"name": "StatefulPartitionedCall/model/conv3_block5_3_conv/Conv2D/ReadVariableOp", "op": "Const", "attr": {"value": {"tensor": {"dtype": "DT_FLOAT", "tensorShape": {"dim": [{"size": "1"}, {"size": "1"}, {"size": "128"}, {"size": "512"}]}}}, "dtype": {"type": "DT_FLOAT"}}}, {"name": "StatefulPartitionedCall/model/conv3_block5_3_conv/BiasAdd/ReadVariableOp", "op": "Const", "attr": {"value": {"tensor": {"dtype": "DT_FLOAT", "tensorShape": {"dim": [{"size": "512"}]}}}, "dtype": {"type": "DT_FLOAT"}}}, {"name": "StatefulPartitionedCall/model/conv3_block6_2_pad/Pad/paddings", "op": "Const", "attr": {"dtype": {"type": "DT_INT32"}, "value": {"tensor": {"dtype": "DT_INT32", "tensorShape": {"dim": [{"size": "4"}, {"size": "2"}]}}}}}, {"name": "StatefulPartitionedCall/model/conv3_block6_3_conv/Conv2D/ReadVariableOp", "op": "Const", "attr": {"dtype": {"type": "DT_FLOAT"}, "value": {"tensor": {"dtype": "DT_FLOAT", "tensorShape": {"dim": [{"size": "1"}, {"size": "1"}, {"size": "128"}, {"size": "512"}]}}}}}, {"name": "StatefulPartitionedCall/model/conv3_block6_3_conv/BiasAdd/ReadVariableOp", "op": "Const", "attr": {"value": {"tensor": {"dtype": "DT_FLOAT", "tensorShape": {"dim": [{"size": "512"}]}}}, "dtype": {"type": "DT_FLOAT"}}}, {"name": "StatefulPartitionedCall/model/conv3_block7_2_pad/Pad/paddings", "op": "Const", "attr": {"value": {"tensor": {"dtype": "DT_INT32", "tensorShape": {"dim": [{"size": "4"}, {"size": "2"}]}}}, "dtype": {"type": "DT_INT32"}}}, {"name": "StatefulPartitionedCall/model/conv3_block7_3_conv/Conv2D/ReadVariableOp", "op": "Const", "attr": {"dtype": {"type": "DT_FLOAT"}, "value": {"tensor": {"dtype": "DT_FLOAT", "tensorShape": {"dim": [{"size": "1"}, {"size": "1"}, {"size": "128"}, {"size": "512"}]}}}}}, {"name": "StatefulPartitionedCall/model/conv3_block7_3_conv/BiasAdd/ReadVariableOp", "op": "Const", "attr": {"dtype": {"type": "DT_FLOAT"}, "value": {"tensor": {"dtype": "DT_FLOAT", "tensorShape": {"dim": [{"size": "512"}]}}}}}, {"name": "StatefulPartitionedCall/model/conv3_block8_2_pad/Pad/paddings", "op": "Const", "attr": {"value": {"tensor": {"dtype": "DT_INT32", "tensorShape": {"dim": [{"size": "4"}, {"size": "2"}]}}}, "dtype": {"type": "DT_INT32"}}}, {"name": "StatefulPartitionedCall/model/conv3_block8_3_conv/Conv2D/ReadVariableOp", "op": "Const", "attr": {"dtype": {"type": "DT_FLOAT"}, "value": {"tensor": {"dtype": "DT_FLOAT", "tensorShape": {"dim": [{"size": "1"}, {"size": "1"}, {"size": "128"}, {"size": "512"}]}}}}}, {"name": "StatefulPartitionedCall/model/conv3_block8_3_conv/BiasAdd/ReadVariableOp", "op": "Const", "attr": {"value": {"tensor": {"dtype": "DT_FLOAT", "tensorShape": {"dim": [{"size": "512"}]}}}, "dtype": {"type": "DT_FLOAT"}}}, {"name": "StatefulPartitionedCall/model/conv4_block1_2_pad/Pad/paddings", "op": "Const", "attr": {"value": {"tensor": {"dtype": "DT_INT32", "tensorShape": {"dim": [{"size": "4"}, {"size": "2"}]}}}, "dtype": {"type": "DT_INT32"}}}, {"name": "StatefulPartitionedCall/model/conv4_block1_3_conv/Conv2D/ReadVariableOp", "op": "Const", "attr": {"value": {"tensor": {"dtype": "DT_FLOAT", "tensorShape": {"dim": [{"size": "1"}, {"size": "1"}, {"size": "256"}, {"size": "1024"}]}}}, "dtype": {"type": "DT_FLOAT"}}}, {"name": "StatefulPartitionedCall/model/conv4_block1_3_conv/BiasAdd/ReadVariableOp", "op": "Const", "attr": {"dtype": {"type": "DT_FLOAT"}, "value": {"tensor": {"dtype": "DT_FLOAT", "tensorShape": {"dim": [{"size": "1024"}]}}}}}, {"name": "StatefulPartitionedCall/model/conv4_block2_2_pad/Pad/paddings", "op": "Const", "attr": {"dtype": {"type": "DT_INT32"}, "value": {"tensor": {"dtype": "DT_INT32", "tensorShape": {"dim": [{"size": "4"}, {"size": "2"}]}}}}}, {"name": "StatefulPartitionedCall/model/conv4_block2_3_conv/Conv2D/ReadVariableOp", "op": "Const", "attr": {"dtype": {"type": "DT_FLOAT"}, "value": {"tensor": {"dtype": "DT_FLOAT", "tensorShape": {"dim": [{"size": "1"}, {"size": "1"}, {"size": "256"}, {"size": "1024"}]}}}}}, {"name": "StatefulPartitionedCall/model/conv4_block2_3_conv/BiasAdd/ReadVariableOp", "op": "Const", "attr": {"dtype": {"type": "DT_FLOAT"}, "value": {"tensor": {"dtype": "DT_FLOAT", "tensorShape": {"dim": [{"size": "1024"}]}}}}}, {"name": "StatefulPartitionedCall/model/conv4_block3_2_pad/Pad/paddings", "op": "Const", "attr": {"dtype": {"type": "DT_INT32"}, "value": {"tensor": {"dtype": "DT_INT32", "tensorShape": {"dim": [{"size": "4"}, {"size": "2"}]}}}}}, {"name": "StatefulPartitionedCall/model/conv4_block3_3_conv/Conv2D/ReadVariableOp", "op": "Const", "attr": {"dtype": {"type": "DT_FLOAT"}, "value": {"tensor": {"dtype": "DT_FLOAT", "tensorShape": {"dim": [{"size": "1"}, {"size": "1"}, {"size": "256"}, {"size": "1024"}]}}}}}, {"name": "StatefulPartitionedCall/model/conv4_block3_3_conv/BiasAdd/ReadVariableOp", "op": "Const", "attr": {"value": {"tensor": {"dtype": "DT_FLOAT", "tensorShape": {"dim": [{"size": "1024"}]}}}, "dtype": {"type": "DT_FLOAT"}}}, {"name": "StatefulPartitionedCall/model/conv4_block4_2_pad/Pad/paddings", "op": "Const", "attr": {"dtype": {"type": "DT_INT32"}, "value": {"tensor": {"dtype": "DT_INT32", "tensorShape": {"dim": [{"size": "4"}, {"size": "2"}]}}}}}, {"name": "StatefulPartitionedCall/model/conv4_block4_3_conv/Conv2D/ReadVariableOp", "op": "Const", "attr": {"value": {"tensor": {"dtype": "DT_FLOAT", "tensorShape": {"dim": [{"size": "1"}, {"size": "1"}, {"size": "256"}, {"size": "1024"}]}}}, "dtype": {"type": "DT_FLOAT"}}}, {"name": "StatefulPartitionedCall/model/conv4_block4_3_conv/BiasAdd/ReadVariableOp", "op": "Const", "attr": {"value": {"tensor": {"dtype": "DT_FLOAT", "tensorShape": {"dim": [{"size": "1024"}]}}}, "dtype": {"type": "DT_FLOAT"}}}, {"name": "StatefulPartitionedCall/model/conv4_block5_2_pad/Pad/paddings", "op": "Const", "attr": {"dtype": {"type": "DT_INT32"}, "value": {"tensor": {"dtype": "DT_INT32", "tensorShape": {"dim": [{"size": "4"}, {"size": "2"}]}}}}}, {"name": "StatefulPartitionedCall/model/conv4_block5_3_conv/Conv2D/ReadVariableOp", "op": "Const", "attr": {"dtype": {"type": "DT_FLOAT"}, "value": {"tensor": {"dtype": "DT_FLOAT", "tensorShape": {"dim": [{"size": "1"}, {"size": "1"}, {"size": "256"}, {"size": "1024"}]}}}}}, {"name": "StatefulPartitionedCall/model/conv4_block5_3_conv/BiasAdd/ReadVariableOp", "op": "Const", "attr": {"dtype": {"type": "DT_FLOAT"}, "value": {"tensor": {"dtype": "DT_FLOAT", "tensorShape": {"dim": [{"size": "1024"}]}}}}}, {"name": "StatefulPartitionedCall/model/conv4_block6_2_pad/Pad/paddings", "op": "Const", "attr": {"value": {"tensor": {"dtype": "DT_INT32", "tensorShape": {"dim": [{"size": "4"}, {"size": "2"}]}}}, "dtype": {"type": "DT_INT32"}}}, {"name": "StatefulPartitionedCall/model/conv4_block6_3_conv/Conv2D/ReadVariableOp", "op": "Const", "attr": {"value": {"tensor": {"dtype": "DT_FLOAT", "tensorShape": {"dim": [{"size": "1"}, {"size": "1"}, {"size": "256"}, {"size": "1024"}]}}}, "dtype": {"type": "DT_FLOAT"}}}, {"name": "StatefulPartitionedCall/model/conv4_block6_3_conv/BiasAdd/ReadVariableOp", "op": "Const", "attr": {"dtype": {"type": "DT_FLOAT"}, "value": {"tensor": {"dtype": "DT_FLOAT", "tensorShape": {"dim": [{"size": "1024"}]}}}}}, {"name": "StatefulPartitionedCall/model/conv4_block7_2_pad/Pad/paddings", "op": "Const", "attr": {"dtype": {"type": "DT_INT32"}, "value": {"tensor": {"dtype": "DT_INT32", "tensorShape": {"dim": [{"size": "4"}, {"size": "2"}]}}}}}, {"name": "StatefulPartitionedCall/model/conv4_block7_3_conv/Conv2D/ReadVariableOp", "op": "Const", "attr": {"value": {"tensor": {"dtype": "DT_FLOAT", "tensorShape": {"dim": [{"size": "1"}, {"size": "1"}, {"size": "256"}, {"size": "1024"}]}}}, "dtype": {"type": "DT_FLOAT"}}}, {"name": "StatefulPartitionedCall/model/conv4_block7_3_conv/BiasAdd/ReadVariableOp", "op": "Const", "attr": {"value": {"tensor": {"dtype": "DT_FLOAT", "tensorShape": {"dim": [{"size": "1024"}]}}}, "dtype": {"type": "DT_FLOAT"}}}, {"name": "StatefulPartitionedCall/model/conv4_block8_2_pad/Pad/paddings", "op": "Const", "attr": {"value": {"tensor": {"dtype": "DT_INT32", "tensorShape": {"dim": [{"size": "4"}, {"size": "2"}]}}}, "dtype": {"type": "DT_INT32"}}}, {"name": "StatefulPartitionedCall/model/conv4_block8_3_conv/Conv2D/ReadVariableOp", "op": "Const", "attr": {"value": {"tensor": {"dtype": "DT_FLOAT", "tensorShape": {"dim": [{"size": "1"}, {"size": "1"}, {"size": "256"}, {"size": "1024"}]}}}, "dtype": {"type": "DT_FLOAT"}}}, {"name": "StatefulPartitionedCall/model/conv4_block8_3_conv/BiasAdd/ReadVariableOp", "op": "Const", "attr": {"dtype": {"type": "DT_FLOAT"}, "value": {"tensor": {"dtype": "DT_FLOAT", "tensorShape": {"dim": [{"size": "1024"}]}}}}}, {"name": "StatefulPartitionedCall/model/conv4_block9_2_pad/Pad/paddings", "op": "Const", "attr": {"value": {"tensor": {"dtype": "DT_INT32", "tensorShape": {"dim": [{"size": "4"}, {"size": "2"}]}}}, "dtype": {"type": "DT_INT32"}}}, {"name": "StatefulPartitionedCall/model/conv4_block9_3_conv/Conv2D/ReadVariableOp", "op": "Const", "attr": {"value": {"tensor": {"dtype": "DT_FLOAT", "tensorShape": {"dim": [{"size": "1"}, {"size": "1"}, {"size": "256"}, {"size": "1024"}]}}}, "dtype": {"type": "DT_FLOAT"}}}, {"name": "StatefulPartitionedCall/model/conv4_block9_3_conv/BiasAdd/ReadVariableOp", "op": "Const", "attr": {"dtype": {"type": "DT_FLOAT"}, "value": {"tensor": {"dtype": "DT_FLOAT", "tensorShape": {"dim": [{"size": "1024"}]}}}}}, {"name": "StatefulPartitionedCall/model/conv4_block10_2_pad/Pad/paddings", "op": "Const", "attr": {"value": {"tensor": {"dtype": "DT_INT32", "tensorShape": {"dim": [{"size": "4"}, {"size": "2"}]}}}, "dtype": {"type": "DT_INT32"}}}, {"name": "StatefulPartitionedCall/model/conv4_block10_3_conv/Conv2D/ReadVariableOp", "op": "Const", "attr": {"value": {"tensor": {"dtype": "DT_FLOAT", "tensorShape": {"dim": [{"size": "1"}, {"size": "1"}, {"size": "256"}, {"size": "1024"}]}}}, "dtype": {"type": "DT_FLOAT"}}}, {"name": "StatefulPartitionedCall/model/conv4_block10_3_conv/BiasAdd/ReadVariableOp", "op": "Const", "attr": {"value": {"tensor": {"dtype": "DT_FLOAT", "tensorShape": {"dim": [{"size": "1024"}]}}}, "dtype": {"type": "DT_FLOAT"}}}, {"name": "StatefulPartitionedCall/model/conv4_block11_2_pad/Pad/paddings", "op": "Const", "attr": {"value": {"tensor": {"dtype": "DT_INT32", "tensorShape": {"dim": [{"size": "4"}, {"size": "2"}]}}}, "dtype": {"type": "DT_INT32"}}}, {"name": "StatefulPartitionedCall/model/conv4_block11_3_conv/Conv2D/ReadVariableOp", "op": "Const", "attr": {"dtype": {"type": "DT_FLOAT"}, "value": {"tensor": {"dtype": "DT_FLOAT", "tensorShape": {"dim": [{"size": "1"}, {"size": "1"}, {"size": "256"}, {"size": "1024"}]}}}}}, {"name": "StatefulPartitionedCall/model/conv4_block11_3_conv/BiasAdd/ReadVariableOp", "op": "Const", "attr": {"value": {"tensor": {"dtype": "DT_FLOAT", "tensorShape": {"dim": [{"size": "1024"}]}}}, "dtype": {"type": "DT_FLOAT"}}}, {"name": "StatefulPartitionedCall/model/conv4_block12_2_pad/Pad/paddings", "op": "Const", "attr": {"value": {"tensor": {"dtype": "DT_INT32", "tensorShape": {"dim": [{"size": "4"}, {"size": "2"}]}}}, "dtype": {"type": "DT_INT32"}}}, {"name": "StatefulPartitionedCall/model/conv4_block12_3_conv/Conv2D/ReadVariableOp", "op": "Const", "attr": {"value": {"tensor": {"dtype": "DT_FLOAT", "tensorShape": {"dim": [{"size": "1"}, {"size": "1"}, {"size": "256"}, {"size": "1024"}]}}}, "dtype": {"type": "DT_FLOAT"}}}, {"name": "StatefulPartitionedCall/model/conv4_block12_3_conv/BiasAdd/ReadVariableOp", "op": "Const", "attr": {"dtype": {"type": "DT_FLOAT"}, "value": {"tensor": {"dtype": "DT_FLOAT", "tensorShape": {"dim": [{"size": "1024"}]}}}}}, {"name": "StatefulPartitionedCall/model/conv4_block13_2_pad/Pad/paddings", "op": "Const", "attr": {"value": {"tensor": {"dtype": "DT_INT32", "tensorShape": {"dim": [{"size": "4"}, {"size": "2"}]}}}, "dtype": {"type": "DT_INT32"}}}, {"name": "StatefulPartitionedCall/model/conv4_block13_3_conv/Conv2D/ReadVariableOp", "op": "Const", "attr": {"value": {"tensor": {"dtype": "DT_FLOAT", "tensorShape": {"dim": [{"size": "1"}, {"size": "1"}, {"size": "256"}, {"size": "1024"}]}}}, "dtype": {"type": "DT_FLOAT"}}}, {"name": "StatefulPartitionedCall/model/conv4_block13_3_conv/BiasAdd/ReadVariableOp", "op": "Const", "attr": {"value": {"tensor": {"dtype": "DT_FLOAT", "tensorShape": {"dim": [{"size": "1024"}]}}}, "dtype": {"type": "DT_FLOAT"}}}, {"name": "StatefulPartitionedCall/model/conv4_block14_2_pad/Pad/paddings", "op": "Const", "attr": {"value": {"tensor": {"dtype": "DT_INT32", "tensorShape": {"dim": [{"size": "4"}, {"size": "2"}]}}}, "dtype": {"type": "DT_INT32"}}}, {"name": "StatefulPartitionedCall/model/conv4_block14_3_conv/Conv2D/ReadVariableOp", "op": "Const", "attr": {"dtype": {"type": "DT_FLOAT"}, "value": {"tensor": {"dtype": "DT_FLOAT", "tensorShape": {"dim": [{"size": "1"}, {"size": "1"}, {"size": "256"}, {"size": "1024"}]}}}}}, {"name": "StatefulPartitionedCall/model/conv4_block14_3_conv/BiasAdd/ReadVariableOp", "op": "Const", "attr": {"value": {"tensor": {"dtype": "DT_FLOAT", "tensorShape": {"dim": [{"size": "1024"}]}}}, "dtype": {"type": "DT_FLOAT"}}}, {"name": "StatefulPartitionedCall/model/conv4_block15_2_pad/Pad/paddings", "op": "Const", "attr": {"dtype": {"type": "DT_INT32"}, "value": {"tensor": {"dtype": "DT_INT32", "tensorShape": {"dim": [{"size": "4"}, {"size": "2"}]}}}}}, {"name": "StatefulPartitionedCall/model/conv4_block15_3_conv/Conv2D/ReadVariableOp", "op": "Const", "attr": {"value": {"tensor": {"dtype": "DT_FLOAT", "tensorShape": {"dim": [{"size": "1"}, {"size": "1"}, {"size": "256"}, {"size": "1024"}]}}}, "dtype": {"type": "DT_FLOAT"}}}, {"name": "StatefulPartitionedCall/model/conv4_block15_3_conv/BiasAdd/ReadVariableOp", "op": "Const", "attr": {"dtype": {"type": "DT_FLOAT"}, "value": {"tensor": {"dtype": "DT_FLOAT", "tensorShape": {"dim": [{"size": "1024"}]}}}}}, {"name": "StatefulPartitionedCall/model/conv4_block16_2_pad/Pad/paddings", "op": "Const", "attr": {"dtype": {"type": "DT_INT32"}, "value": {"tensor": {"dtype": "DT_INT32", "tensorShape": {"dim": [{"size": "4"}, {"size": "2"}]}}}}}, {"name": "StatefulPartitionedCall/model/conv4_block16_3_conv/Conv2D/ReadVariableOp", "op": "Const", "attr": {"dtype": {"type": "DT_FLOAT"}, "value": {"tensor": {"dtype": "DT_FLOAT", "tensorShape": {"dim": [{"size": "1"}, {"size": "1"}, {"size": "256"}, {"size": "1024"}]}}}}}, {"name": "StatefulPartitionedCall/model/conv4_block16_3_conv/BiasAdd/ReadVariableOp", "op": "Const", "attr": {"value": {"tensor": {"dtype": "DT_FLOAT", "tensorShape": {"dim": [{"size": "1024"}]}}}, "dtype": {"type": "DT_FLOAT"}}}, {"name": "StatefulPartitionedCall/model/conv4_block17_2_pad/Pad/paddings", "op": "Const", "attr": {"value": {"tensor": {"dtype": "DT_INT32", "tensorShape": {"dim": [{"size": "4"}, {"size": "2"}]}}}, "dtype": {"type": "DT_INT32"}}}, {"name": "StatefulPartitionedCall/model/conv4_block17_3_conv/Conv2D/ReadVariableOp", "op": "Const", "attr": {"value": {"tensor": {"dtype": "DT_FLOAT", "tensorShape": {"dim": [{"size": "1"}, {"size": "1"}, {"size": "256"}, {"size": "1024"}]}}}, "dtype": {"type": "DT_FLOAT"}}}, {"name": "StatefulPartitionedCall/model/conv4_block17_3_conv/BiasAdd/ReadVariableOp", "op": "Const", "attr": {"dtype": {"type": "DT_FLOAT"}, "value": {"tensor": {"dtype": "DT_FLOAT", "tensorShape": {"dim": [{"size": "1024"}]}}}}}, {"name": "StatefulPartitionedCall/model/conv4_block18_2_pad/Pad/paddings", "op": "Const", "attr": {"dtype": {"type": "DT_INT32"}, "value": {"tensor": {"dtype": "DT_INT32", "tensorShape": {"dim": [{"size": "4"}, {"size": "2"}]}}}}}, {"name": "StatefulPartitionedCall/model/conv4_block18_3_conv/Conv2D/ReadVariableOp", "op": "Const", "attr": {"dtype": {"type": "DT_FLOAT"}, "value": {"tensor": {"dtype": "DT_FLOAT", "tensorShape": {"dim": [{"size": "1"}, {"size": "1"}, {"size": "256"}, {"size": "1024"}]}}}}}, {"name": "StatefulPartitionedCall/model/conv4_block18_3_conv/BiasAdd/ReadVariableOp", "op": "Const", "attr": {"value": {"tensor": {"dtype": "DT_FLOAT", "tensorShape": {"dim": [{"size": "1024"}]}}}, "dtype": {"type": "DT_FLOAT"}}}, {"name": "StatefulPartitionedCall/model/conv4_block19_2_pad/Pad/paddings", "op": "Const", "attr": {"value": {"tensor": {"dtype": "DT_INT32", "tensorShape": {"dim": [{"size": "4"}, {"size": "2"}]}}}, "dtype": {"type": "DT_INT32"}}}, {"name": "StatefulPartitionedCall/model/conv4_block19_3_conv/Conv2D/ReadVariableOp", "op": "Const", "attr": {"value": {"tensor": {"dtype": "DT_FLOAT", "tensorShape": {"dim": [{"size": "1"}, {"size": "1"}, {"size": "256"}, {"size": "1024"}]}}}, "dtype": {"type": "DT_FLOAT"}}}, {"name": "StatefulPartitionedCall/model/conv4_block19_3_conv/BiasAdd/ReadVariableOp", "op": "Const", "attr": {"value": {"tensor": {"dtype": "DT_FLOAT", "tensorShape": {"dim": [{"size": "1024"}]}}}, "dtype": {"type": "DT_FLOAT"}}}, {"name": "StatefulPartitionedCall/model/conv4_block20_2_pad/Pad/paddings", "op": "Const", "attr": {"dtype": {"type": "DT_INT32"}, "value": {"tensor": {"dtype": "DT_INT32", "tensorShape": {"dim": [{"size": "4"}, {"size": "2"}]}}}}}, {"name": "StatefulPartitionedCall/model/conv4_block20_3_conv/Conv2D/ReadVariableOp", "op": "Const", "attr": {"value": {"tensor": {"dtype": "DT_FLOAT", "tensorShape": {"dim": [{"size": "1"}, {"size": "1"}, {"size": "256"}, {"size": "1024"}]}}}, "dtype": {"type": "DT_FLOAT"}}}, {"name": "StatefulPartitionedCall/model/conv4_block20_3_conv/BiasAdd/ReadVariableOp", "op": "Const", "attr": {"value": {"tensor": {"dtype": "DT_FLOAT", "tensorShape": {"dim": [{"size": "1024"}]}}}, "dtype": {"type": "DT_FLOAT"}}}, {"name": "StatefulPartitionedCall/model/conv4_block21_2_pad/Pad/paddings", "op": "Const", "attr": {"dtype": {"type": "DT_INT32"}, "value": {"tensor": {"dtype": "DT_INT32", "tensorShape": {"dim": [{"size": "4"}, {"size": "2"}]}}}}}, {"name": "StatefulPartitionedCall/model/conv4_block21_3_conv/Conv2D/ReadVariableOp", "op": "Const", "attr": {"dtype": {"type": "DT_FLOAT"}, "value": {"tensor": {"dtype": "DT_FLOAT", "tensorShape": {"dim": [{"size": "1"}, {"size": "1"}, {"size": "256"}, {"size": "1024"}]}}}}}, {"name": "StatefulPartitionedCall/model/conv4_block21_3_conv/BiasAdd/ReadVariableOp", "op": "Const", "attr": {"value": {"tensor": {"dtype": "DT_FLOAT", "tensorShape": {"dim": [{"size": "1024"}]}}}, "dtype": {"type": "DT_FLOAT"}}}, {"name": "StatefulPartitionedCall/model/conv4_block22_2_pad/Pad/paddings", "op": "Const", "attr": {"value": {"tensor": {"dtype": "DT_INT32", "tensorShape": {"dim": [{"size": "4"}, {"size": "2"}]}}}, "dtype": {"type": "DT_INT32"}}}, {"name": "StatefulPartitionedCall/model/conv4_block22_3_conv/Conv2D/ReadVariableOp", "op": "Const", "attr": {"value": {"tensor": {"dtype": "DT_FLOAT", "tensorShape": {"dim": [{"size": "1"}, {"size": "1"}, {"size": "256"}, {"size": "1024"}]}}}, "dtype": {"type": "DT_FLOAT"}}}, {"name": "StatefulPartitionedCall/model/conv4_block22_3_conv/BiasAdd/ReadVariableOp", "op": "Const", "attr": {"value": {"tensor": {"dtype": "DT_FLOAT", "tensorShape": {"dim": [{"size": "1024"}]}}}, "dtype": {"type": "DT_FLOAT"}}}, {"name": "StatefulPartitionedCall/model/conv4_block23_2_pad/Pad/paddings", "op": "Const", "attr": {"value": {"tensor": {"dtype": "DT_INT32", "tensorShape": {"dim": [{"size": "4"}, {"size": "2"}]}}}, "dtype": {"type": "DT_INT32"}}}, {"name": "StatefulPartitionedCall/model/conv4_block23_3_conv/Conv2D/ReadVariableOp", "op": "Const", "attr": {"value": {"tensor": {"dtype": "DT_FLOAT", "tensorShape": {"dim": [{"size": "1"}, {"size": "1"}, {"size": "256"}, {"size": "1024"}]}}}, "dtype": {"type": "DT_FLOAT"}}}, {"name": "StatefulPartitionedCall/model/conv4_block23_3_conv/BiasAdd/ReadVariableOp", "op": "Const", "attr": {"value": {"tensor": {"dtype": "DT_FLOAT", "tensorShape": {"dim": [{"size": "1024"}]}}}, "dtype": {"type": "DT_FLOAT"}}}, {"name": "StatefulPartitionedCall/model/conv4_block24_2_pad/Pad/paddings", "op": "Const", "attr": {"dtype": {"type": "DT_INT32"}, "value": {"tensor": {"dtype": "DT_INT32", "tensorShape": {"dim": [{"size": "4"}, {"size": "2"}]}}}}}, {"name": "StatefulPartitionedCall/model/conv4_block24_3_conv/Conv2D/ReadVariableOp", "op": "Const", "attr": {"dtype": {"type": "DT_FLOAT"}, "value": {"tensor": {"dtype": "DT_FLOAT", "tensorShape": {"dim": [{"size": "1"}, {"size": "1"}, {"size": "256"}, {"size": "1024"}]}}}}}, {"name": "StatefulPartitionedCall/model/conv4_block24_3_conv/BiasAdd/ReadVariableOp", "op": "Const", "attr": {"dtype": {"type": "DT_FLOAT"}, "value": {"tensor": {"dtype": "DT_FLOAT", "tensorShape": {"dim": [{"size": "1024"}]}}}}}, {"name": "StatefulPartitionedCall/model/conv4_block25_2_pad/Pad/paddings", "op": "Const", "attr": {"value": {"tensor": {"dtype": "DT_INT32", "tensorShape": {"dim": [{"size": "4"}, {"size": "2"}]}}}, "dtype": {"type": "DT_INT32"}}}, {"name": "StatefulPartitionedCall/model/conv4_block25_3_conv/Conv2D/ReadVariableOp", "op": "Const", "attr": {"dtype": {"type": "DT_FLOAT"}, "value": {"tensor": {"dtype": "DT_FLOAT", "tensorShape": {"dim": [{"size": "1"}, {"size": "1"}, {"size": "256"}, {"size": "1024"}]}}}}}, {"name": "StatefulPartitionedCall/model/conv4_block25_3_conv/BiasAdd/ReadVariableOp", "op": "Const", "attr": {"dtype": {"type": "DT_FLOAT"}, "value": {"tensor": {"dtype": "DT_FLOAT", "tensorShape": {"dim": [{"size": "1024"}]}}}}}, {"name": "StatefulPartitionedCall/model/conv4_block26_2_pad/Pad/paddings", "op": "Const", "attr": {"value": {"tensor": {"dtype": "DT_INT32", "tensorShape": {"dim": [{"size": "4"}, {"size": "2"}]}}}, "dtype": {"type": "DT_INT32"}}}, {"name": "StatefulPartitionedCall/model/conv4_block26_3_conv/Conv2D/ReadVariableOp", "op": "Const", "attr": {"dtype": {"type": "DT_FLOAT"}, "value": {"tensor": {"dtype": "DT_FLOAT", "tensorShape": {"dim": [{"size": "1"}, {"size": "1"}, {"size": "256"}, {"size": "1024"}]}}}}}, {"name": "StatefulPartitionedCall/model/conv4_block26_3_conv/BiasAdd/ReadVariableOp", "op": "Const", "attr": {"value": {"tensor": {"dtype": "DT_FLOAT", "tensorShape": {"dim": [{"size": "1024"}]}}}, "dtype": {"type": "DT_FLOAT"}}}, {"name": "StatefulPartitionedCall/model/conv4_block27_2_pad/Pad/paddings", "op": "Const", "attr": {"value": {"tensor": {"dtype": "DT_INT32", "tensorShape": {"dim": [{"size": "4"}, {"size": "2"}]}}}, "dtype": {"type": "DT_INT32"}}}, {"name": "StatefulPartitionedCall/model/conv4_block27_3_conv/Conv2D/ReadVariableOp", "op": "Const", "attr": {"dtype": {"type": "DT_FLOAT"}, "value": {"tensor": {"dtype": "DT_FLOAT", "tensorShape": {"dim": [{"size": "1"}, {"size": "1"}, {"size": "256"}, {"size": "1024"}]}}}}}, {"name": "StatefulPartitionedCall/model/conv4_block27_3_conv/BiasAdd/ReadVariableOp", "op": "Const", "attr": {"dtype": {"type": "DT_FLOAT"}, "value": {"tensor": {"dtype": "DT_FLOAT", "tensorShape": {"dim": [{"size": "1024"}]}}}}}, {"name": "StatefulPartitionedCall/model/conv4_block28_2_pad/Pad/paddings", "op": "Const", "attr": {"dtype": {"type": "DT_INT32"}, "value": {"tensor": {"dtype": "DT_INT32", "tensorShape": {"dim": [{"size": "4"}, {"size": "2"}]}}}}}, {"name": "StatefulPartitionedCall/model/conv4_block28_3_conv/Conv2D/ReadVariableOp", "op": "Const", "attr": {"value": {"tensor": {"dtype": "DT_FLOAT", "tensorShape": {"dim": [{"size": "1"}, {"size": "1"}, {"size": "256"}, {"size": "1024"}]}}}, "dtype": {"type": "DT_FLOAT"}}}, {"name": "StatefulPartitionedCall/model/conv4_block28_3_conv/BiasAdd/ReadVariableOp", "op": "Const", "attr": {"value": {"tensor": {"dtype": "DT_FLOAT", "tensorShape": {"dim": [{"size": "1024"}]}}}, "dtype": {"type": "DT_FLOAT"}}}, {"name": "StatefulPartitionedCall/model/conv4_block29_2_pad/Pad/paddings", "op": "Const", "attr": {"value": {"tensor": {"dtype": "DT_INT32", "tensorShape": {"dim": [{"size": "4"}, {"size": "2"}]}}}, "dtype": {"type": "DT_INT32"}}}, {"name": "StatefulPartitionedCall/model/conv4_block29_3_conv/Conv2D/ReadVariableOp", "op": "Const", "attr": {"dtype": {"type": "DT_FLOAT"}, "value": {"tensor": {"dtype": "DT_FLOAT", "tensorShape": {"dim": [{"size": "1"}, {"size": "1"}, {"size": "256"}, {"size": "1024"}]}}}}}, {"name": "StatefulPartitionedCall/model/conv4_block29_3_conv/BiasAdd/ReadVariableOp", "op": "Const", "attr": {"dtype": {"type": "DT_FLOAT"}, "value": {"tensor": {"dtype": "DT_FLOAT", "tensorShape": {"dim": [{"size": "1024"}]}}}}}, {"name": "StatefulPartitionedCall/model/conv4_block30_2_pad/Pad/paddings", "op": "Const", "attr": {"value": {"tensor": {"dtype": "DT_INT32", "tensorShape": {"dim": [{"size": "4"}, {"size": "2"}]}}}, "dtype": {"type": "DT_INT32"}}}, {"name": "StatefulPartitionedCall/model/conv4_block30_3_conv/Conv2D/ReadVariableOp", "op": "Const", "attr": {"dtype": {"type": "DT_FLOAT"}, "value": {"tensor": {"dtype": "DT_FLOAT", "tensorShape": {"dim": [{"size": "1"}, {"size": "1"}, {"size": "256"}, {"size": "1024"}]}}}}}, {"name": "StatefulPartitionedCall/model/conv4_block30_3_conv/BiasAdd/ReadVariableOp", "op": "Const", "attr": {"dtype": {"type": "DT_FLOAT"}, "value": {"tensor": {"dtype": "DT_FLOAT", "tensorShape": {"dim": [{"size": "1024"}]}}}}}, {"name": "StatefulPartitionedCall/model/conv4_block31_2_pad/Pad/paddings", "op": "Const", "attr": {"value": {"tensor": {"dtype": "DT_INT32", "tensorShape": {"dim": [{"size": "4"}, {"size": "2"}]}}}, "dtype": {"type": "DT_INT32"}}}, {"name": "StatefulPartitionedCall/model/conv4_block31_3_conv/Conv2D/ReadVariableOp", "op": "Const", "attr": {"value": {"tensor": {"dtype": "DT_FLOAT", "tensorShape": {"dim": [{"size": "1"}, {"size": "1"}, {"size": "256"}, {"size": "1024"}]}}}, "dtype": {"type": "DT_FLOAT"}}}, {"name": "StatefulPartitionedCall/model/conv4_block31_3_conv/BiasAdd/ReadVariableOp", "op": "Const", "attr": {"value": {"tensor": {"dtype": "DT_FLOAT", "tensorShape": {"dim": [{"size": "1024"}]}}}, "dtype": {"type": "DT_FLOAT"}}}, {"name": "StatefulPartitionedCall/model/conv4_block32_2_pad/Pad/paddings", "op": "Const", "attr": {"dtype": {"type": "DT_INT32"}, "value": {"tensor": {"dtype": "DT_INT32", "tensorShape": {"dim": [{"size": "4"}, {"size": "2"}]}}}}}, {"name": "StatefulPartitionedCall/model/conv4_block32_3_conv/Conv2D/ReadVariableOp", "op": "Const", "attr": {"dtype": {"type": "DT_FLOAT"}, "value": {"tensor": {"dtype": "DT_FLOAT", "tensorShape": {"dim": [{"size": "1"}, {"size": "1"}, {"size": "256"}, {"size": "1024"}]}}}}}, {"name": "StatefulPartitionedCall/model/conv4_block32_3_conv/BiasAdd/ReadVariableOp", "op": "Const", "attr": {"value": {"tensor": {"dtype": "DT_FLOAT", "tensorShape": {"dim": [{"size": "1024"}]}}}, "dtype": {"type": "DT_FLOAT"}}}, {"name": "StatefulPartitionedCall/model/conv4_block33_2_pad/Pad/paddings", "op": "Const", "attr": {"dtype": {"type": "DT_INT32"}, "value": {"tensor": {"dtype": "DT_INT32", "tensorShape": {"dim": [{"size": "4"}, {"size": "2"}]}}}}}, {"name": "StatefulPartitionedCall/model/conv4_block33_3_conv/Conv2D/ReadVariableOp", "op": "Const", "attr": {"value": {"tensor": {"dtype": "DT_FLOAT", "tensorShape": {"dim": [{"size": "1"}, {"size": "1"}, {"size": "256"}, {"size": "1024"}]}}}, "dtype": {"type": "DT_FLOAT"}}}, {"name": "StatefulPartitionedCall/model/conv4_block33_3_conv/BiasAdd/ReadVariableOp", "op": "Const", "attr": {"value": {"tensor": {"dtype": "DT_FLOAT", "tensorShape": {"dim": [{"size": "1024"}]}}}, "dtype": {"type": "DT_FLOAT"}}}, {"name": "StatefulPartitionedCall/model/conv4_block34_2_pad/Pad/paddings", "op": "Const", "attr": {"value": {"tensor": {"dtype": "DT_INT32", "tensorShape": {"dim": [{"size": "4"}, {"size": "2"}]}}}, "dtype": {"type": "DT_INT32"}}}, {"name": "StatefulPartitionedCall/model/conv4_block34_3_conv/Conv2D/ReadVariableOp", "op": "Const", "attr": {"value": {"tensor": {"dtype": "DT_FLOAT", "tensorShape": {"dim": [{"size": "1"}, {"size": "1"}, {"size": "256"}, {"size": "1024"}]}}}, "dtype": {"type": "DT_FLOAT"}}}, {"name": "StatefulPartitionedCall/model/conv4_block34_3_conv/BiasAdd/ReadVariableOp", "op": "Const", "attr": {"value": {"tensor": {"dtype": "DT_FLOAT", "tensorShape": {"dim": [{"size": "1024"}]}}}, "dtype": {"type": "DT_FLOAT"}}}, {"name": "StatefulPartitionedCall/model/conv4_block35_2_pad/Pad/paddings", "op": "Const", "attr": {"value": {"tensor": {"dtype": "DT_INT32", "tensorShape": {"dim": [{"size": "4"}, {"size": "2"}]}}}, "dtype": {"type": "DT_INT32"}}}, {"name": "StatefulPartitionedCall/model/conv4_block35_3_conv/Conv2D/ReadVariableOp", "op": "Const", "attr": {"dtype": {"type": "DT_FLOAT"}, "value": {"tensor": {"dtype": "DT_FLOAT", "tensorShape": {"dim": [{"size": "1"}, {"size": "1"}, {"size": "256"}, {"size": "1024"}]}}}}}, {"name": "StatefulPartitionedCall/model/conv4_block35_3_conv/BiasAdd/ReadVariableOp", "op": "Const", "attr": {"value": {"tensor": {"dtype": "DT_FLOAT", "tensorShape": {"dim": [{"size": "1024"}]}}}, "dtype": {"type": "DT_FLOAT"}}}, {"name": "StatefulPartitionedCall/model/conv4_block36_2_pad/Pad/paddings", "op": "Const", "attr": {"value": {"tensor": {"dtype": "DT_INT32", "tensorShape": {"dim": [{"size": "4"}, {"size": "2"}]}}}, "dtype": {"type": "DT_INT32"}}}, {"name": "StatefulPartitionedCall/model/conv4_block36_3_conv/Conv2D/ReadVariableOp", "op": "Const", "attr": {"value": {"tensor": {"dtype": "DT_FLOAT", "tensorShape": {"dim": [{"size": "1"}, {"size": "1"}, {"size": "256"}, {"size": "1024"}]}}}, "dtype": {"type": "DT_FLOAT"}}}, {"name": "StatefulPartitionedCall/model/conv4_block36_3_conv/BiasAdd/ReadVariableOp", "op": "Const", "attr": {"dtype": {"type": "DT_FLOAT"}, "value": {"tensor": {"dtype": "DT_FLOAT", "tensorShape": {"dim": [{"size": "1024"}]}}}}}, {"name": "StatefulPartitionedCall/model/conv5_block1_2_pad/Pad/paddings", "op": "Const", "attr": {"dtype": {"type": "DT_INT32"}, "value": {"tensor": {"dtype": "DT_INT32", "tensorShape": {"dim": [{"size": "4"}, {"size": "2"}]}}}}}, {"name": "StatefulPartitionedCall/model/conv5_block1_3_conv/Conv2D/ReadVariableOp", "op": "Const", "attr": {"value": {"tensor": {"dtype": "DT_FLOAT", "tensorShape": {"dim": [{"size": "1"}, {"size": "1"}, {"size": "512"}, {"size": "2048"}]}}}, "dtype": {"type": "DT_FLOAT"}}}, {"name": "StatefulPartitionedCall/model/conv5_block1_3_conv/BiasAdd/ReadVariableOp", "op": "Const", "attr": {"dtype": {"type": "DT_FLOAT"}, "value": {"tensor": {"dtype": "DT_FLOAT", "tensorShape": {"dim": [{"size": "2048"}]}}}}}, {"name": "StatefulPartitionedCall/model/conv5_block2_2_pad/Pad/paddings", "op": "Const", "attr": {"dtype": {"type": "DT_INT32"}, "value": {"tensor": {"dtype": "DT_INT32", "tensorShape": {"dim": [{"size": "4"}, {"size": "2"}]}}}}}, {"name": "StatefulPartitionedCall/model/conv5_block2_3_conv/Conv2D/ReadVariableOp", "op": "Const", "attr": {"value": {"tensor": {"dtype": "DT_FLOAT", "tensorShape": {"dim": [{"size": "1"}, {"size": "1"}, {"size": "512"}, {"size": "2048"}]}}}, "dtype": {"type": "DT_FLOAT"}}}, {"name": "StatefulPartitionedCall/model/conv5_block2_3_conv/BiasAdd/ReadVariableOp", "op": "Const", "attr": {"value": {"tensor": {"dtype": "DT_FLOAT", "tensorShape": {"dim": [{"size": "2048"}]}}}, "dtype": {"type": "DT_FLOAT"}}}, {"name": "StatefulPartitionedCall/model/conv5_block3_2_pad/Pad/paddings", "op": "Const", "attr": {"dtype": {"type": "DT_INT32"}, "value": {"tensor": {"dtype": "DT_INT32", "tensorShape": {"dim": [{"size": "4"}, {"size": "2"}]}}}}}, {"name": "StatefulPartitionedCall/model/conv5_block3_3_conv/Conv2D/ReadVariableOp", "op": "Const", "attr": {"dtype": {"type": "DT_FLOAT"}, "value": {"tensor": {"dtype": "DT_FLOAT", "tensorShape": {"dim": [{"size": "1"}, {"size": "1"}, {"size": "512"}, {"size": "2048"}]}}}}}, {"name": "StatefulPartitionedCall/model/conv5_block3_3_conv/BiasAdd/ReadVariableOp", "op": "Const", "attr": {"value": {"tensor": {"dtype": "DT_FLOAT", "tensorShape": {"dim": [{"size": "2048"}]}}}, "dtype": {"type": "DT_FLOAT"}}}, {"name": "StatefulPartitionedCall/model/global_max_pooling2d/Max/reduction_indices", "op": "Const", "attr": {"dtype": {"type": "DT_INT32"}, "value": {"tensor": {"dtype": "DT_INT32", "tensorShape": {"dim": [{"size": "2"}]}}}}}, {"name": "StatefulPartitionedCall/model/dense/MatMul/ReadVariableOp", "op": "Const", "attr": {"dtype": {"type": "DT_FLOAT"}, "value": {"tensor": {"dtype": "DT_FLOAT", "tensorShape": {"dim": [{"size": "2048"}, {"size": "10"}]}}}}}, {"name": "StatefulPartitionedCall/model/dense/BiasAdd/ReadVariableOp", "op": "Const", "attr": {"dtype": {"type": "DT_FLOAT"}, "value": {"tensor": {"dtype": "DT_FLOAT", "tensorShape": {"dim": [{"size": "10"}]}}}}}, {"name": "input_1", "op": "Placeholder", "attr": {"shape": {"shape": {"dim": [{"size": "-1"}, {"size": "32"}, {"size": "32"}, {"size": "3"}]}}, "dtype": {"type": "DT_FLOAT"}}}, {"name": "StatefulPartitionedCall/model/conv4_block26_preact_bn/FusedBatchNormV3/Scaled", "op": "Const", "attr": {"dtype": {"type": "DT_FLOAT"}, "value": {"tensor": {"dtype": "DT_FLOAT", "tensorShape": {"dim": [{"size": "1024"}]}}}}}, {"name": "StatefulPartitionedCall/model/conv2_block1_1_conv/Conv2D_weights", "op": "Const", "attr": {"dtype": {"type": "DT_FLOAT"}, "value": {"tensor": {"dtype": "DT_FLOAT", "tensorShape": {"dim": [{"size": "1"}, {"size": "1"}, {"size": "64"}, {"size": "64"}]}}}}}, {"name": "StatefulPartitionedCall/model/conv2_block1_1_conv/Conv2D_bn_offset", "op": "Const", "attr": {"dtype": {"type": "DT_FLOAT"}, "value": {"tensor": {"dtype": "DT_FLOAT", "tensorShape": {"dim": [{"size": "64"}]}}}}}, {"name": "StatefulPartitionedCall/model/conv4_block26_preact_bn/FusedBatchNormV3/Offset", "op": "Const", "attr": {"dtype": {"type": "DT_FLOAT"}, "value": {"tensor": {"dtype": "DT_FLOAT", "tensorShape": {"dim": [{"size": "1024"}]}}}}}, {"name": "StatefulPartitionedCall/model/conv2_block1_2_conv/Conv2D_weights", "op": "Const", "attr": {"value": {"tensor": {"dtype": "DT_FLOAT", "tensorShape": {"dim": [{"size": "3"}, {"size": "3"}, {"size": "64"}, {"size": "64"}]}}}, "dtype": {"type": "DT_FLOAT"}}}, {"name": "StatefulPartitionedCall/model/conv2_block1_2_conv/Conv2D_bn_offset", "op": "Const", "attr": {"value": {"tensor": {"dtype": "DT_FLOAT", "tensorShape": {"dim": [{"size": "64"}]}}}, "dtype": {"type": "DT_FLOAT"}}}, {"name": "StatefulPartitionedCall/model/conv2_block2_1_conv/Conv2D_weights", "op": "Const", "attr": {"dtype": {"type": "DT_FLOAT"}, "value": {"tensor": {"dtype": "DT_FLOAT", "tensorShape": {"dim": [{"size": "1"}, {"size": "1"}, {"size": "256"}, {"size": "64"}]}}}}}, {"name": "StatefulPartitionedCall/model/conv4_block25_preact_bn/FusedBatchNormV3/Scaled", "op": "Const", "attr": {"value": {"tensor": {"dtype": "DT_FLOAT", "tensorShape": {"dim": [{"size": "1024"}]}}}, "dtype": {"type": "DT_FLOAT"}}}, {"name": "StatefulPartitionedCall/model/conv2_block2_1_conv/Conv2D_bn_offset", "op": "Const", "attr": {"value": {"tensor": {"dtype": "DT_FLOAT", "tensorShape": {"dim": [{"size": "64"}]}}}, "dtype": {"type": "DT_FLOAT"}}}, {"name": "StatefulPartitionedCall/model/conv2_block2_2_conv/Conv2D_weights", "op": "Const", "attr": {"dtype": {"type": "DT_FLOAT"}, "value": {"tensor": {"dtype": "DT_FLOAT", "tensorShape": {"dim": [{"size": "3"}, {"size": "3"}, {"size": "64"}, {"size": "64"}]}}}}}, {"name": "StatefulPartitionedCall/model/conv2_block2_2_conv/Conv2D_bn_offset", "op": "Const", "attr": {"value": {"tensor": {"dtype": "DT_FLOAT", "tensorShape": {"dim": [{"size": "64"}]}}}, "dtype": {"type": "DT_FLOAT"}}}, {"name": "StatefulPartitionedCall/model/conv4_block25_preact_bn/FusedBatchNormV3/Offset", "op": "Const", "attr": {"value": {"tensor": {"dtype": "DT_FLOAT", "tensorShape": {"dim": [{"size": "1024"}]}}}, "dtype": {"type": "DT_FLOAT"}}}, {"name": "StatefulPartitionedCall/model/conv2_block3_1_conv/Conv2D_weights", "op": "Const", "attr": {"value": {"tensor": {"dtype": "DT_FLOAT", "tensorShape": {"dim": [{"size": "1"}, {"size": "1"}, {"size": "256"}, {"size": "64"}]}}}, "dtype": {"type": "DT_FLOAT"}}}, {"name": "StatefulPartitionedCall/model/conv2_block3_1_conv/Conv2D_bn_offset", "op": "Const", "attr": {"value": {"tensor": {"dtype": "DT_FLOAT", "tensorShape": {"dim": [{"size": "64"}]}}}, "dtype": {"type": "DT_FLOAT"}}}, {"name": "StatefulPartitionedCall/model/conv2_block3_2_conv/Conv2D_weights", "op": "Const", "attr": {"value": {"tensor": {"dtype": "DT_FLOAT", "tensorShape": {"dim": [{"size": "3"}, {"size": "3"}, {"size": "64"}, {"size": "64"}]}}}, "dtype": {"type": "DT_FLOAT"}}}, {"name": "StatefulPartitionedCall/model/conv4_block24_preact_bn/FusedBatchNormV3/Scaled", "op": "Const", "attr": {"dtype": {"type": "DT_FLOAT"}, "value": {"tensor": {"dtype": "DT_FLOAT", "tensorShape": {"dim": [{"size": "1024"}]}}}}}, {"name": "StatefulPartitionedCall/model/conv2_block3_2_conv/Conv2D_bn_offset", "op": "Const", "attr": {"dtype": {"type": "DT_FLOAT"}, "value": {"tensor": {"dtype": "DT_FLOAT", "tensorShape": {"dim": [{"size": "64"}]}}}}}, {"name": "StatefulPartitionedCall/model/conv4_block24_preact_bn/FusedBatchNormV3/Offset", "op": "Const", "attr": {"value": {"tensor": {"dtype": "DT_FLOAT", "tensorShape": {"dim": [{"size": "1024"}]}}}, "dtype": {"type": "DT_FLOAT"}}}, {"name": "StatefulPartitionedCall/model/conv3_block1_1_conv/Conv2D_weights", "op": "Const", "attr": {"value": {"tensor": {"dtype": "DT_FLOAT", "tensorShape": {"dim": [{"size": "1"}, {"size": "1"}, {"size": "256"}, {"size": "128"}]}}}, "dtype": {"type": "DT_FLOAT"}}}, {"name": "StatefulPartitionedCall/model/conv3_block1_1_conv/Conv2D_bn_offset", "op": "Const", "attr": {"value": {"tensor": {"dtype": "DT_FLOAT", "tensorShape": {"dim": [{"size": "128"}]}}}, "dtype": {"type": "DT_FLOAT"}}}, {"name": "StatefulPartitionedCall/model/conv3_block1_2_conv/Conv2D_weights", "op": "Const", "attr": {"dtype": {"type": "DT_FLOAT"}, "value": {"tensor": {"dtype": "DT_FLOAT", "tensorShape": {"dim": [{"size": "3"}, {"size": "3"}, {"size": "128"}, {"size": "128"}]}}}}}, {"name": "StatefulPartitionedCall/model/conv3_block1_2_conv/Conv2D_bn_offset", "op": "Const", "attr": {"value": {"tensor": {"dtype": "DT_FLOAT", "tensorShape": {"dim": [{"size": "128"}]}}}, "dtype": {"type": "DT_FLOAT"}}}, {"name": "StatefulPartitionedCall/model/conv4_block23_preact_bn/FusedBatchNormV3/Scaled", "op": "Const", "attr": {"dtype": {"type": "DT_FLOAT"}, "value": {"tensor": {"dtype": "DT_FLOAT", "tensorShape": {"dim": [{"size": "1024"}]}}}}}, {"name": "StatefulPartitionedCall/model/conv3_block2_1_conv/Conv2D_weights", "op": "Const", "attr": {"value": {"tensor": {"dtype": "DT_FLOAT", "tensorShape": {"dim": [{"size": "1"}, {"size": "1"}, {"size": "512"}, {"size": "128"}]}}}, "dtype": {"type": "DT_FLOAT"}}}, {"name": "StatefulPartitionedCall/model/conv3_block2_1_conv/Conv2D_bn_offset", "op": "Const", "attr": {"dtype": {"type": "DT_FLOAT"}, "value": {"tensor": {"dtype": "DT_FLOAT", "tensorShape": {"dim": [{"size": "128"}]}}}}}, {"name": "StatefulPartitionedCall/model/conv4_block23_preact_bn/FusedBatchNormV3/Offset", "op": "Const", "attr": {"dtype": {"type": "DT_FLOAT"}, "value": {"tensor": {"dtype": "DT_FLOAT", "tensorShape": {"dim": [{"size": "1024"}]}}}}}, {"name": "StatefulPartitionedCall/model/conv3_block2_2_conv/Conv2D_weights", "op": "Const", "attr": {"value": {"tensor": {"dtype": "DT_FLOAT", "tensorShape": {"dim": [{"size": "3"}, {"size": "3"}, {"size": "128"}, {"size": "128"}]}}}, "dtype": {"type": "DT_FLOAT"}}}, {"name": "StatefulPartitionedCall/model/conv3_block2_2_conv/Conv2D_bn_offset", "op": "Const", "attr": {"value": {"tensor": {"dtype": "DT_FLOAT", "tensorShape": {"dim": [{"size": "128"}]}}}, "dtype": {"type": "DT_FLOAT"}}}, {"name": "StatefulPartitionedCall/model/conv3_block3_1_conv/Conv2D_weights", "op": "Const", "attr": {"dtype": {"type": "DT_FLOAT"}, "value": {"tensor": {"dtype": "DT_FLOAT", "tensorShape": {"dim": [{"size": "1"}, {"size": "1"}, {"size": "512"}, {"size": "128"}]}}}}}, {"name": "StatefulPartitionedCall/model/conv4_block22_preact_bn/FusedBatchNormV3/Scaled", "op": "Const", "attr": {"value": {"tensor": {"dtype": "DT_FLOAT", "tensorShape": {"dim": [{"size": "1024"}]}}}, "dtype": {"type": "DT_FLOAT"}}}, {"name": "StatefulPartitionedCall/model/conv3_block3_1_conv/Conv2D_bn_offset", "op": "Const", "attr": {"dtype": {"type": "DT_FLOAT"}, "value": {"tensor": {"dtype": "DT_FLOAT", "tensorShape": {"dim": [{"size": "128"}]}}}}}, {"name": "StatefulPartitionedCall/model/conv3_block3_2_conv/Conv2D_weights", "op": "Const", "attr": {"dtype": {"type": "DT_FLOAT"}, "value": {"tensor": {"dtype": "DT_FLOAT", "tensorShape": {"dim": [{"size": "3"}, {"size": "3"}, {"size": "128"}, {"size": "128"}]}}}}}, {"name": "StatefulPartitionedCall/model/conv3_block3_2_conv/Conv2D_bn_offset", "op": "Const", "attr": {"dtype": {"type": "DT_FLOAT"}, "value": {"tensor": {"dtype": "DT_FLOAT", "tensorShape": {"dim": [{"size": "128"}]}}}}}, {"name": "StatefulPartitionedCall/model/conv4_block22_preact_bn/FusedBatchNormV3/Offset", "op": "Const", "attr": {"dtype": {"type": "DT_FLOAT"}, "value": {"tensor": {"dtype": "DT_FLOAT", "tensorShape": {"dim": [{"size": "1024"}]}}}}}, {"name": "StatefulPartitionedCall/model/conv3_block4_1_conv/Conv2D_weights", "op": "Const", "attr": {"dtype": {"type": "DT_FLOAT"}, "value": {"tensor": {"dtype": "DT_FLOAT", "tensorShape": {"dim": [{"size": "1"}, {"size": "1"}, {"size": "512"}, {"size": "128"}]}}}}}, {"name": "StatefulPartitionedCall/model/conv3_block4_1_conv/Conv2D_bn_offset", "op": "Const", "attr": {"value": {"tensor": {"dtype": "DT_FLOAT", "tensorShape": {"dim": [{"size": "128"}]}}}, "dtype": {"type": "DT_FLOAT"}}}, {"name": "StatefulPartitionedCall/model/conv3_block4_2_conv/Conv2D_weights", "op": "Const", "attr": {"value": {"tensor": {"dtype": "DT_FLOAT", "tensorShape": {"dim": [{"size": "3"}, {"size": "3"}, {"size": "128"}, {"size": "128"}]}}}, "dtype": {"type": "DT_FLOAT"}}}, {"name": "StatefulPartitionedCall/model/conv4_block21_preact_bn/FusedBatchNormV3/Scaled", "op": "Const", "attr": {"value": {"tensor": {"dtype": "DT_FLOAT", "tensorShape": {"dim": [{"size": "1024"}]}}}, "dtype": {"type": "DT_FLOAT"}}}, {"name": "StatefulPartitionedCall/model/conv3_block4_2_conv/Conv2D_bn_offset", "op": "Const", "attr": {"value": {"tensor": {"dtype": "DT_FLOAT", "tensorShape": {"dim": [{"size": "128"}]}}}, "dtype": {"type": "DT_FLOAT"}}}, {"name": "StatefulPartitionedCall/model/conv3_block5_1_conv/Conv2D_weights", "op": "Const", "attr": {"value": {"tensor": {"dtype": "DT_FLOAT", "tensorShape": {"dim": [{"size": "1"}, {"size": "1"}, {"size": "512"}, {"size": "128"}]}}}, "dtype": {"type": "DT_FLOAT"}}}, {"name": "StatefulPartitionedCall/model/conv4_block21_preact_bn/FusedBatchNormV3/Offset", "op": "Const", "attr": {"value": {"tensor": {"dtype": "DT_FLOAT", "tensorShape": {"dim": [{"size": "1024"}]}}}, "dtype": {"type": "DT_FLOAT"}}}, {"name": "StatefulPartitionedCall/model/conv3_block5_1_conv/Conv2D_bn_offset", "op": "Const", "attr": {"value": {"tensor": {"dtype": "DT_FLOAT", "tensorShape": {"dim": [{"size": "128"}]}}}, "dtype": {"type": "DT_FLOAT"}}}, {"name": "StatefulPartitionedCall/model/conv3_block5_2_conv/Conv2D_weights", "op": "Const", "attr": {"dtype": {"type": "DT_FLOAT"}, "value": {"tensor": {"dtype": "DT_FLOAT", "tensorShape": {"dim": [{"size": "3"}, {"size": "3"}, {"size": "128"}, {"size": "128"}]}}}}}, {"name": "StatefulPartitionedCall/model/conv3_block5_2_conv/Conv2D_bn_offset", "op": "Const", "attr": {"value": {"tensor": {"dtype": "DT_FLOAT", "tensorShape": {"dim": [{"size": "128"}]}}}, "dtype": {"type": "DT_FLOAT"}}}, {"name": "StatefulPartitionedCall/model/conv4_block20_preact_bn/FusedBatchNormV3/Scaled", "op": "Const", "attr": {"value": {"tensor": {"dtype": "DT_FLOAT", "tensorShape": {"dim": [{"size": "1024"}]}}}, "dtype": {"type": "DT_FLOAT"}}}, {"name": "StatefulPartitionedCall/model/conv3_block6_1_conv/Conv2D_weights", "op": "Const", "attr": {"value": {"tensor": {"dtype": "DT_FLOAT", "tensorShape": {"dim": [{"size": "1"}, {"size": "1"}, {"size": "512"}, {"size": "128"}]}}}, "dtype": {"type": "DT_FLOAT"}}}, {"name": "StatefulPartitionedCall/model/conv3_block6_1_conv/Conv2D_bn_offset", "op": "Const", "attr": {"dtype": {"type": "DT_FLOAT"}, "value": {"tensor": {"dtype": "DT_FLOAT", "tensorShape": {"dim": [{"size": "128"}]}}}}}, {"name": "StatefulPartitionedCall/model/conv3_block6_2_conv/Conv2D_weights", "op": "Const", "attr": {"dtype": {"type": "DT_FLOAT"}, "value": {"tensor": {"dtype": "DT_FLOAT", "tensorShape": {"dim": [{"size": "3"}, {"size": "3"}, {"size": "128"}, {"size": "128"}]}}}}}, {"name": "StatefulPartitionedCall/model/conv4_block20_preact_bn/FusedBatchNormV3/Offset", "op": "Const", "attr": {"dtype": {"type": "DT_FLOAT"}, "value": {"tensor": {"dtype": "DT_FLOAT", "tensorShape": {"dim": [{"size": "1024"}]}}}}}, {"name": "StatefulPartitionedCall/model/conv3_block6_2_conv/Conv2D_bn_offset", "op": "Const", "attr": {"value": {"tensor": {"dtype": "DT_FLOAT", "tensorShape": {"dim": [{"size": "128"}]}}}, "dtype": {"type": "DT_FLOAT"}}}, {"name": "StatefulPartitionedCall/model/conv3_block7_1_conv/Conv2D_weights", "op": "Const", "attr": {"value": {"tensor": {"dtype": "DT_FLOAT", "tensorShape": {"dim": [{"size": "1"}, {"size": "1"}, {"size": "512"}, {"size": "128"}]}}}, "dtype": {"type": "DT_FLOAT"}}}, {"name": "StatefulPartitionedCall/model/conv3_block7_1_conv/Conv2D_bn_offset", "op": "Const", "attr": {"value": {"tensor": {"dtype": "DT_FLOAT", "tensorShape": {"dim": [{"size": "128"}]}}}, "dtype": {"type": "DT_FLOAT"}}}, {"name": "StatefulPartitionedCall/model/conv4_block19_preact_bn/FusedBatchNormV3/Scaled", "op": "Const", "attr": {"dtype": {"type": "DT_FLOAT"}, "value": {"tensor": {"dtype": "DT_FLOAT", "tensorShape": {"dim": [{"size": "1024"}]}}}}}, {"name": "StatefulPartitionedCall/model/conv3_block7_2_conv/Conv2D_weights", "op": "Const", "attr": {"value": {"tensor": {"dtype": "DT_FLOAT", "tensorShape": {"dim": [{"size": "3"}, {"size": "3"}, {"size": "128"}, {"size": "128"}]}}}, "dtype": {"type": "DT_FLOAT"}}}, {"name": "StatefulPartitionedCall/model/conv3_block7_2_conv/Conv2D_bn_offset", "op": "Const", "attr": {"dtype": {"type": "DT_FLOAT"}, "value": {"tensor": {"dtype": "DT_FLOAT", "tensorShape": {"dim": [{"size": "128"}]}}}}}, {"name": "StatefulPartitionedCall/model/conv4_block19_preact_bn/FusedBatchNormV3/Offset", "op": "Const", "attr": {"dtype": {"type": "DT_FLOAT"}, "value": {"tensor": {"dtype": "DT_FLOAT", "tensorShape": {"dim": [{"size": "1024"}]}}}}}, {"name": "StatefulPartitionedCall/model/conv3_block8_1_conv/Conv2D_weights", "op": "Const", "attr": {"value": {"tensor": {"dtype": "DT_FLOAT", "tensorShape": {"dim": [{"size": "1"}, {"size": "1"}, {"size": "512"}, {"size": "128"}]}}}, "dtype": {"type": "DT_FLOAT"}}}, {"name": "StatefulPartitionedCall/model/conv3_block8_1_conv/Conv2D_bn_offset", "op": "Const", "attr": {"dtype": {"type": "DT_FLOAT"}, "value": {"tensor": {"dtype": "DT_FLOAT", "tensorShape": {"dim": [{"size": "128"}]}}}}}, {"name": "StatefulPartitionedCall/model/conv3_block8_2_conv/Conv2D_weights", "op": "Const", "attr": {"value": {"tensor": {"dtype": "DT_FLOAT", "tensorShape": {"dim": [{"size": "3"}, {"size": "3"}, {"size": "128"}, {"size": "128"}]}}}, "dtype": {"type": "DT_FLOAT"}}}, {"name": "StatefulPartitionedCall/model/conv3_block8_2_conv/Conv2D_bn_offset", "op": "Const", "attr": {"dtype": {"type": "DT_FLOAT"}, "value": {"tensor": {"dtype": "DT_FLOAT", "tensorShape": {"dim": [{"size": "128"}]}}}}}, {"name": "StatefulPartitionedCall/model/conv4_block18_preact_bn/FusedBatchNormV3/Scaled", "op": "Const", "attr": {"dtype": {"type": "DT_FLOAT"}, "value": {"tensor": {"dtype": "DT_FLOAT", "tensorShape": {"dim": [{"size": "1024"}]}}}}}, {"name": "StatefulPartitionedCall/model/conv4_block1_1_conv/Conv2D_weights", "op": "Const", "attr": {"dtype": {"type": "DT_FLOAT"}, "value": {"tensor": {"dtype": "DT_FLOAT", "tensorShape": {"dim": [{"size": "1"}, {"size": "1"}, {"size": "512"}, {"size": "256"}]}}}}}, {"name": "StatefulPartitionedCall/model/conv4_block18_preact_bn/FusedBatchNormV3/Offset", "op": "Const", "attr": {"dtype": {"type": "DT_FLOAT"}, "value": {"tensor": {"dtype": "DT_FLOAT", "tensorShape": {"dim": [{"size": "1024"}]}}}}}, {"name": "StatefulPartitionedCall/model/conv4_block1_1_conv/Conv2D_bn_offset", "op": "Const", "attr": {"dtype": {"type": "DT_FLOAT"}, "value": {"tensor": {"dtype": "DT_FLOAT", "tensorShape": {"dim": [{"size": "256"}]}}}}}, {"name": "StatefulPartitionedCall/model/conv4_block1_2_conv/Conv2D_weights", "op": "Const", "attr": {"dtype": {"type": "DT_FLOAT"}, "value": {"tensor": {"dtype": "DT_FLOAT", "tensorShape": {"dim": [{"size": "3"}, {"size": "3"}, {"size": "256"}, {"size": "256"}]}}}}}, {"name": "StatefulPartitionedCall/model/conv4_block1_2_conv/Conv2D_bn_offset", "op": "Const", "attr": {"dtype": {"type": "DT_FLOAT"}, "value": {"tensor": {"dtype": "DT_FLOAT", "tensorShape": {"dim": [{"size": "256"}]}}}}}, {"name": "StatefulPartitionedCall/model/conv4_block17_preact_bn/FusedBatchNormV3/Scaled", "op": "Const", "attr": {"value": {"tensor": {"dtype": "DT_FLOAT", "tensorShape": {"dim": [{"size": "1024"}]}}}, "dtype": {"type": "DT_FLOAT"}}}, {"name": "StatefulPartitionedCall/model/conv4_block2_1_conv/Conv2D_weights", "op": "Const", "attr": {"value": {"tensor": {"dtype": "DT_FLOAT", "tensorShape": {"dim": [{"size": "1"}, {"size": "1"}, {"size": "1024"}, {"size": "256"}]}}}, "dtype": {"type": "DT_FLOAT"}}}, {"name": "StatefulPartitionedCall/model/conv4_block2_1_conv/Conv2D_bn_offset", "op": "Const", "attr": {"value": {"tensor": {"dtype": "DT_FLOAT", "tensorShape": {"dim": [{"size": "256"}]}}}, "dtype": {"type": "DT_FLOAT"}}}, {"name": "StatefulPartitionedCall/model/conv4_block2_2_conv/Conv2D_weights", "op": "Const", "attr": {"value": {"tensor": {"dtype": "DT_FLOAT", "tensorShape": {"dim": [{"size": "3"}, {"size": "3"}, {"size": "256"}, {"size": "256"}]}}}, "dtype": {"type": "DT_FLOAT"}}}, {"name": "StatefulPartitionedCall/model/conv4_block17_preact_bn/FusedBatchNormV3/Offset", "op": "Const", "attr": {"dtype": {"type": "DT_FLOAT"}, "value": {"tensor": {"dtype": "DT_FLOAT", "tensorShape": {"dim": [{"size": "1024"}]}}}}}, {"name": "StatefulPartitionedCall/model/conv4_block2_2_conv/Conv2D_bn_offset", "op": "Const", "attr": {"dtype": {"type": "DT_FLOAT"}, "value": {"tensor": {"dtype": "DT_FLOAT", "tensorShape": {"dim": [{"size": "256"}]}}}}}, {"name": "StatefulPartitionedCall/model/conv4_block3_1_conv/Conv2D_weights", "op": "Const", "attr": {"value": {"tensor": {"dtype": "DT_FLOAT", "tensorShape": {"dim": [{"size": "1"}, {"size": "1"}, {"size": "1024"}, {"size": "256"}]}}}, "dtype": {"type": "DT_FLOAT"}}}, {"name": "StatefulPartitionedCall/model/conv4_block3_1_conv/Conv2D_bn_offset", "op": "Const", "attr": {"value": {"tensor": {"dtype": "DT_FLOAT", "tensorShape": {"dim": [{"size": "256"}]}}}, "dtype": {"type": "DT_FLOAT"}}}, {"name": "StatefulPartitionedCall/model/conv4_block16_preact_bn/FusedBatchNormV3/Scaled", "op": "Const", "attr": {"dtype": {"type": "DT_FLOAT"}, "value": {"tensor": {"dtype": "DT_FLOAT", "tensorShape": {"dim": [{"size": "1024"}]}}}}}, {"name": "StatefulPartitionedCall/model/conv4_block3_2_conv/Conv2D_weights", "op": "Const", "attr": {"value": {"tensor": {"dtype": "DT_FLOAT", "tensorShape": {"dim": [{"size": "3"}, {"size": "3"}, {"size": "256"}, {"size": "256"}]}}}, "dtype": {"type": "DT_FLOAT"}}}, {"name": "StatefulPartitionedCall/model/conv4_block3_2_conv/Conv2D_bn_offset", "op": "Const", "attr": {"dtype": {"type": "DT_FLOAT"}, "value": {"tensor": {"dtype": "DT_FLOAT", "tensorShape": {"dim": [{"size": "256"}]}}}}}, {"name": "StatefulPartitionedCall/model/conv4_block16_preact_bn/FusedBatchNormV3/Offset", "op": "Const", "attr": {"dtype": {"type": "DT_FLOAT"}, "value": {"tensor": {"dtype": "DT_FLOAT", "tensorShape": {"dim": [{"size": "1024"}]}}}}}, {"name": "StatefulPartitionedCall/model/conv4_block4_1_conv/Conv2D_weights", "op": "Const", "attr": {"value": {"tensor": {"dtype": "DT_FLOAT", "tensorShape": {"dim": [{"size": "1"}, {"size": "1"}, {"size": "1024"}, {"size": "256"}]}}}, "dtype": {"type": "DT_FLOAT"}}}, {"name": "StatefulPartitionedCall/model/conv4_block4_1_conv/Conv2D_bn_offset", "op": "Const", "attr": {"dtype": {"type": "DT_FLOAT"}, "value": {"tensor": {"dtype": "DT_FLOAT", "tensorShape": {"dim": [{"size": "256"}]}}}}}, {"name": "StatefulPartitionedCall/model/conv4_block4_2_conv/Conv2D_weights", "op": "Const", "attr": {"dtype": {"type": "DT_FLOAT"}, "value": {"tensor": {"dtype": "DT_FLOAT", "tensorShape": {"dim": [{"size": "3"}, {"size": "3"}, {"size": "256"}, {"size": "256"}]}}}}}, {"name": "StatefulPartitionedCall/model/conv4_block4_2_conv/Conv2D_bn_offset", "op": "Const", "attr": {"value": {"tensor": {"dtype": "DT_FLOAT", "tensorShape": {"dim": [{"size": "256"}]}}}, "dtype": {"type": "DT_FLOAT"}}}, {"name": "StatefulPartitionedCall/model/conv4_block15_preact_bn/FusedBatchNormV3/Scaled", "op": "Const", "attr": {"dtype": {"type": "DT_FLOAT"}, "value": {"tensor": {"dtype": "DT_FLOAT", "tensorShape": {"dim": [{"size": "1024"}]}}}}}, {"name": "StatefulPartitionedCall/model/conv4_block5_1_conv/Conv2D_weights", "op": "Const", "attr": {"dtype": {"type": "DT_FLOAT"}, "value": {"tensor": {"dtype": "DT_FLOAT", "tensorShape": {"dim": [{"size": "1"}, {"size": "1"}, {"size": "1024"}, {"size": "256"}]}}}}}, {"name": "StatefulPartitionedCall/model/conv4_block5_1_conv/Conv2D_bn_offset", "op": "Const", "attr": {"value": {"tensor": {"dtype": "DT_FLOAT", "tensorShape": {"dim": [{"size": "256"}]}}}, "dtype": {"type": "DT_FLOAT"}}}, {"name": "StatefulPartitionedCall/model/conv4_block15_preact_bn/FusedBatchNormV3/Offset", "op": "Const", "attr": {"value": {"tensor": {"dtype": "DT_FLOAT", "tensorShape": {"dim": [{"size": "1024"}]}}}, "dtype": {"type": "DT_FLOAT"}}}, {"name": "StatefulPartitionedCall/model/conv4_block5_2_conv/Conv2D_weights", "op": "Const", "attr": {"dtype": {"type": "DT_FLOAT"}, "value": {"tensor": {"dtype": "DT_FLOAT", "tensorShape": {"dim": [{"size": "3"}, {"size": "3"}, {"size": "256"}, {"size": "256"}]}}}}}, {"name": "StatefulPartitionedCall/model/conv4_block5_2_conv/Conv2D_bn_offset", "op": "Const", "attr": {"value": {"tensor": {"dtype": "DT_FLOAT", "tensorShape": {"dim": [{"size": "256"}]}}}, "dtype": {"type": "DT_FLOAT"}}}, {"name": "StatefulPartitionedCall/model/conv4_block6_1_conv/Conv2D_weights", "op": "Const", "attr": {"dtype": {"type": "DT_FLOAT"}, "value": {"tensor": {"dtype": "DT_FLOAT", "tensorShape": {"dim": [{"size": "1"}, {"size": "1"}, {"size": "1024"}, {"size": "256"}]}}}}}, {"name": "StatefulPartitionedCall/model/conv4_block14_preact_bn/FusedBatchNormV3/Scaled", "op": "Const", "attr": {"dtype": {"type": "DT_FLOAT"}, "value": {"tensor": {"dtype": "DT_FLOAT", "tensorShape": {"dim": [{"size": "1024"}]}}}}}, {"name": "StatefulPartitionedCall/model/conv4_block6_1_conv/Conv2D_bn_offset", "op": "Const", "attr": {"value": {"tensor": {"dtype": "DT_FLOAT", "tensorShape": {"dim": [{"size": "256"}]}}}, "dtype": {"type": "DT_FLOAT"}}}, {"name": "StatefulPartitionedCall/model/conv4_block6_2_conv/Conv2D_weights", "op": "Const", "attr": {"dtype": {"type": "DT_FLOAT"}, "value": {"tensor": {"dtype": "DT_FLOAT", "tensorShape": {"dim": [{"size": "3"}, {"size": "3"}, {"size": "256"}, {"size": "256"}]}}}}}, {"name": "StatefulPartitionedCall/model/conv4_block6_2_conv/Conv2D_bn_offset", "op": "Const", "attr": {"value": {"tensor": {"dtype": "DT_FLOAT", "tensorShape": {"dim": [{"size": "256"}]}}}, "dtype": {"type": "DT_FLOAT"}}}, {"name": "StatefulPartitionedCall/model/conv4_block14_preact_bn/FusedBatchNormV3/Offset", "op": "Const", "attr": {"dtype": {"type": "DT_FLOAT"}, "value": {"tensor": {"dtype": "DT_FLOAT", "tensorShape": {"dim": [{"size": "1024"}]}}}}}, {"name": "StatefulPartitionedCall/model/conv4_block7_1_conv/Conv2D_weights", "op": "Const", "attr": {"dtype": {"type": "DT_FLOAT"}, "value": {"tensor": {"dtype": "DT_FLOAT", "tensorShape": {"dim": [{"size": "1"}, {"size": "1"}, {"size": "1024"}, {"size": "256"}]}}}}}, {"name": "StatefulPartitionedCall/model/conv4_block7_1_conv/Conv2D_bn_offset", "op": "Const", "attr": {"dtype": {"type": "DT_FLOAT"}, "value": {"tensor": {"dtype": "DT_FLOAT", "tensorShape": {"dim": [{"size": "256"}]}}}}}, {"name": "StatefulPartitionedCall/model/conv4_block7_2_conv/Conv2D_weights", "op": "Const", "attr": {"dtype": {"type": "DT_FLOAT"}, "value": {"tensor": {"dtype": "DT_FLOAT", "tensorShape": {"dim": [{"size": "3"}, {"size": "3"}, {"size": "256"}, {"size": "256"}]}}}}}, {"name": "StatefulPartitionedCall/model/conv4_block13_preact_bn/FusedBatchNormV3/Scaled", "op": "Const", "attr": {"dtype": {"type": "DT_FLOAT"}, "value": {"tensor": {"dtype": "DT_FLOAT", "tensorShape": {"dim": [{"size": "1024"}]}}}}}, {"name": "StatefulPartitionedCall/model/conv4_block7_2_conv/Conv2D_bn_offset", "op": "Const", "attr": {"dtype": {"type": "DT_FLOAT"}, "value": {"tensor": {"dtype": "DT_FLOAT", "tensorShape": {"dim": [{"size": "256"}]}}}}}, {"name": "StatefulPartitionedCall/model/conv4_block8_1_conv/Conv2D_weights", "op": "Const", "attr": {"dtype": {"type": "DT_FLOAT"}, "value": {"tensor": {"dtype": "DT_FLOAT", "tensorShape": {"dim": [{"size": "1"}, {"size": "1"}, {"size": "1024"}, {"size": "256"}]}}}}}, {"name": "StatefulPartitionedCall/model/conv4_block13_preact_bn/FusedBatchNormV3/Offset", "op": "Const", "attr": {"value": {"tensor": {"dtype": "DT_FLOAT", "tensorShape": {"dim": [{"size": "1024"}]}}}, "dtype": {"type": "DT_FLOAT"}}}, {"name": "StatefulPartitionedCall/model/conv4_block8_1_conv/Conv2D_bn_offset", "op": "Const", "attr": {"value": {"tensor": {"dtype": "DT_FLOAT", "tensorShape": {"dim": [{"size": "256"}]}}}, "dtype": {"type": "DT_FLOAT"}}}, {"name": "StatefulPartitionedCall/model/conv4_block8_2_conv/Conv2D_weights", "op": "Const", "attr": {"dtype": {"type": "DT_FLOAT"}, "value": {"tensor": {"dtype": "DT_FLOAT", "tensorShape": {"dim": [{"size": "3"}, {"size": "3"}, {"size": "256"}, {"size": "256"}]}}}}}, {"name": "StatefulPartitionedCall/model/conv4_block8_2_conv/Conv2D_bn_offset", "op": "Const", "attr": {"value": {"tensor": {"dtype": "DT_FLOAT", "tensorShape": {"dim": [{"size": "256"}]}}}, "dtype": {"type": "DT_FLOAT"}}}, {"name": "StatefulPartitionedCall/model/conv4_block12_preact_bn/FusedBatchNormV3/Scaled", "op": "Const", "attr": {"value": {"tensor": {"dtype": "DT_FLOAT", "tensorShape": {"dim": [{"size": "1024"}]}}}, "dtype": {"type": "DT_FLOAT"}}}, {"name": "StatefulPartitionedCall/model/conv4_block9_1_conv/Conv2D_weights", "op": "Const", "attr": {"value": {"tensor": {"dtype": "DT_FLOAT", "tensorShape": {"dim": [{"size": "1"}, {"size": "1"}, {"size": "1024"}, {"size": "256"}]}}}, "dtype": {"type": "DT_FLOAT"}}}, {"name": "StatefulPartitionedCall/model/conv4_block9_1_conv/Conv2D_bn_offset", "op": "Const", "attr": {"dtype": {"type": "DT_FLOAT"}, "value": {"tensor": {"dtype": "DT_FLOAT", "tensorShape": {"dim": [{"size": "256"}]}}}}}, {"name": "StatefulPartitionedCall/model/conv4_block9_2_conv/Conv2D_weights", "op": "Const", "attr": {"dtype": {"type": "DT_FLOAT"}, "value": {"tensor": {"dtype": "DT_FLOAT", "tensorShape": {"dim": [{"size": "3"}, {"size": "3"}, {"size": "256"}, {"size": "256"}]}}}}}, {"name": "StatefulPartitionedCall/model/conv4_block12_preact_bn/FusedBatchNormV3/Offset", "op": "Const", "attr": {"dtype": {"type": "DT_FLOAT"}, "value": {"tensor": {"dtype": "DT_FLOAT", "tensorShape": {"dim": [{"size": "1024"}]}}}}}, {"name": "StatefulPartitionedCall/model/conv4_block9_2_conv/Conv2D_bn_offset", "op": "Const", "attr": {"value": {"tensor": {"dtype": "DT_FLOAT", "tensorShape": {"dim": [{"size": "256"}]}}}, "dtype": {"type": "DT_FLOAT"}}}, {"name": "StatefulPartitionedCall/model/conv4_block10_1_conv/Conv2D_weights", "op": "Const", "attr": {"value": {"tensor": {"dtype": "DT_FLOAT", "tensorShape": {"dim": [{"size": "1"}, {"size": "1"}, {"size": "1024"}, {"size": "256"}]}}}, "dtype": {"type": "DT_FLOAT"}}}, {"name": "StatefulPartitionedCall/model/conv4_block10_1_conv/Conv2D_bn_offset", "op": "Const", "attr": {"dtype": {"type": "DT_FLOAT"}, "value": {"tensor": {"dtype": "DT_FLOAT", "tensorShape": {"dim": [{"size": "256"}]}}}}}, {"name": "StatefulPartitionedCall/model/conv4_block11_preact_bn/FusedBatchNormV3/Scaled", "op": "Const", "attr": {"dtype": {"type": "DT_FLOAT"}, "value": {"tensor": {"dtype": "DT_FLOAT", "tensorShape": {"dim": [{"size": "1024"}]}}}}}, {"name": "StatefulPartitionedCall/model/conv4_block10_2_conv/Conv2D_weights", "op": "Const", "attr": {"value": {"tensor": {"dtype": "DT_FLOAT", "tensorShape": {"dim": [{"size": "3"}, {"size": "3"}, {"size": "256"}, {"size": "256"}]}}}, "dtype": {"type": "DT_FLOAT"}}}, {"name": "StatefulPartitionedCall/model/conv4_block10_2_conv/Conv2D_bn_offset", "op": "Const", "attr": {"dtype": {"type": "DT_FLOAT"}, "value": {"tensor": {"dtype": "DT_FLOAT", "tensorShape": {"dim": [{"size": "256"}]}}}}}, {"name": "StatefulPartitionedCall/model/conv4_block11_preact_bn/FusedBatchNormV3/Offset", "op": "Const", "attr": {"dtype": {"type": "DT_FLOAT"}, "value": {"tensor": {"dtype": "DT_FLOAT", "tensorShape": {"dim": [{"size": "1024"}]}}}}}, {"name": "StatefulPartitionedCall/model/conv4_block11_1_conv/Conv2D_weights", "op": "Const", "attr": {"value": {"tensor": {"dtype": "DT_FLOAT", "tensorShape": {"dim": [{"size": "1"}, {"size": "1"}, {"size": "1024"}, {"size": "256"}]}}}, "dtype": {"type": "DT_FLOAT"}}}, {"name": "StatefulPartitionedCall/model/conv4_block11_1_conv/Conv2D_bn_offset", "op": "Const", "attr": {"value": {"tensor": {"dtype": "DT_FLOAT", "tensorShape": {"dim": [{"size": "256"}]}}}, "dtype": {"type": "DT_FLOAT"}}}, {"name": "StatefulPartitionedCall/model/conv4_block11_2_conv/Conv2D_weights", "op": "Const", "attr": {"value": {"tensor": {"dtype": "DT_FLOAT", "tensorShape": {"dim": [{"size": "3"}, {"size": "3"}, {"size": "256"}, {"size": "256"}]}}}, "dtype": {"type": "DT_FLOAT"}}}, {"name": "StatefulPartitionedCall/model/conv4_block11_2_conv/Conv2D_bn_offset", "op": "Const", "attr": {"value": {"tensor": {"dtype": "DT_FLOAT", "tensorShape": {"dim": [{"size": "256"}]}}}, "dtype": {"type": "DT_FLOAT"}}}, {"name": "StatefulPartitionedCall/model/conv4_block10_preact_bn/FusedBatchNormV3/Scaled", "op": "Const", "attr": {"value": {"tensor": {"dtype": "DT_FLOAT", "tensorShape": {"dim": [{"size": "1024"}]}}}, "dtype": {"type": "DT_FLOAT"}}}, {"name": "StatefulPartitionedCall/model/conv4_block12_1_conv/Conv2D_weights", "op": "Const", "attr": {"value": {"tensor": {"dtype": "DT_FLOAT", "tensorShape": {"dim": [{"size": "1"}, {"size": "1"}, {"size": "1024"}, {"size": "256"}]}}}, "dtype": {"type": "DT_FLOAT"}}}, {"name": "StatefulPartitionedCall/model/conv4_block12_1_conv/Conv2D_bn_offset", "op": "Const", "attr": {"value": {"tensor": {"dtype": "DT_FLOAT", "tensorShape": {"dim": [{"size": "256"}]}}}, "dtype": {"type": "DT_FLOAT"}}}, {"name": "StatefulPartitionedCall/model/conv4_block10_preact_bn/FusedBatchNormV3/Offset", "op": "Const", "attr": {"value": {"tensor": {"dtype": "DT_FLOAT", "tensorShape": {"dim": [{"size": "1024"}]}}}, "dtype": {"type": "DT_FLOAT"}}}, {"name": "StatefulPartitionedCall/model/conv4_block12_2_conv/Conv2D_weights", "op": "Const", "attr": {"dtype": {"type": "DT_FLOAT"}, "value": {"tensor": {"dtype": "DT_FLOAT", "tensorShape": {"dim": [{"size": "3"}, {"size": "3"}, {"size": "256"}, {"size": "256"}]}}}}}, {"name": "StatefulPartitionedCall/model/conv4_block12_2_conv/Conv2D_bn_offset", "op": "Const", "attr": {"dtype": {"type": "DT_FLOAT"}, "value": {"tensor": {"dtype": "DT_FLOAT", "tensorShape": {"dim": [{"size": "256"}]}}}}}, {"name": "StatefulPartitionedCall/model/conv4_block13_1_conv/Conv2D_weights", "op": "Const", "attr": {"dtype": {"type": "DT_FLOAT"}, "value": {"tensor": {"dtype": "DT_FLOAT", "tensorShape": {"dim": [{"size": "1"}, {"size": "1"}, {"size": "1024"}, {"size": "256"}]}}}}}, {"name": "StatefulPartitionedCall/model/conv4_block9_preact_bn/FusedBatchNormV3/Scaled", "op": "Const", "attr": {"dtype": {"type": "DT_FLOAT"}, "value": {"tensor": {"dtype": "DT_FLOAT", "tensorShape": {"dim": [{"size": "1024"}]}}}}}, {"name": "StatefulPartitionedCall/model/conv4_block13_1_conv/Conv2D_bn_offset", "op": "Const", "attr": {"value": {"tensor": {"dtype": "DT_FLOAT", "tensorShape": {"dim": [{"size": "256"}]}}}, "dtype": {"type": "DT_FLOAT"}}}, {"name": "StatefulPartitionedCall/model/conv4_block13_2_conv/Conv2D_weights", "op": "Const", "attr": {"value": {"tensor": {"dtype": "DT_FLOAT", "tensorShape": {"dim": [{"size": "3"}, {"size": "3"}, {"size": "256"}, {"size": "256"}]}}}, "dtype": {"type": "DT_FLOAT"}}}, {"name": "StatefulPartitionedCall/model/conv4_block13_2_conv/Conv2D_bn_offset", "op": "Const", "attr": {"value": {"tensor": {"dtype": "DT_FLOAT", "tensorShape": {"dim": [{"size": "256"}]}}}, "dtype": {"type": "DT_FLOAT"}}}, {"name": "StatefulPartitionedCall/model/conv4_block9_preact_bn/FusedBatchNormV3/Offset", "op": "Const", "attr": {"value": {"tensor": {"dtype": "DT_FLOAT", "tensorShape": {"dim": [{"size": "1024"}]}}}, "dtype": {"type": "DT_FLOAT"}}}, {"name": "StatefulPartitionedCall/model/conv4_block14_1_conv/Conv2D_weights", "op": "Const", "attr": {"dtype": {"type": "DT_FLOAT"}, "value": {"tensor": {"dtype": "DT_FLOAT", "tensorShape": {"dim": [{"size": "1"}, {"size": "1"}, {"size": "1024"}, {"size": "256"}]}}}}}, {"name": "StatefulPartitionedCall/model/conv4_block14_1_conv/Conv2D_bn_offset", "op": "Const", "attr": {"dtype": {"type": "DT_FLOAT"}, "value": {"tensor": {"dtype": "DT_FLOAT", "tensorShape": {"dim": [{"size": "256"}]}}}}}, {"name": "StatefulPartitionedCall/model/conv4_block14_2_conv/Conv2D_weights", "op": "Const", "attr": {"dtype": {"type": "DT_FLOAT"}, "value": {"tensor": {"dtype": "DT_FLOAT", "tensorShape": {"dim": [{"size": "3"}, {"size": "3"}, {"size": "256"}, {"size": "256"}]}}}}}, {"name": "StatefulPartitionedCall/model/conv4_block8_preact_bn/FusedBatchNormV3/Scaled", "op": "Const", "attr": {"dtype": {"type": "DT_FLOAT"}, "value": {"tensor": {"dtype": "DT_FLOAT", "tensorShape": {"dim": [{"size": "1024"}]}}}}}, {"name": "StatefulPartitionedCall/model/conv4_block14_2_conv/Conv2D_bn_offset", "op": "Const", "attr": {"value": {"tensor": {"dtype": "DT_FLOAT", "tensorShape": {"dim": [{"size": "256"}]}}}, "dtype": {"type": "DT_FLOAT"}}}, {"name": "StatefulPartitionedCall/model/conv4_block15_1_conv/Conv2D_weights", "op": "Const", "attr": {"value": {"tensor": {"dtype": "DT_FLOAT", "tensorShape": {"dim": [{"size": "1"}, {"size": "1"}, {"size": "1024"}, {"size": "256"}]}}}, "dtype": {"type": "DT_FLOAT"}}}, {"name": "StatefulPartitionedCall/model/conv4_block8_preact_bn/FusedBatchNormV3/Offset", "op": "Const", "attr": {"value": {"tensor": {"dtype": "DT_FLOAT", "tensorShape": {"dim": [{"size": "1024"}]}}}, "dtype": {"type": "DT_FLOAT"}}}, {"name": "StatefulPartitionedCall/model/conv4_block15_1_conv/Conv2D_bn_offset", "op": "Const", "attr": {"value": {"tensor": {"dtype": "DT_FLOAT", "tensorShape": {"dim": [{"size": "256"}]}}}, "dtype": {"type": "DT_FLOAT"}}}, {"name": "StatefulPartitionedCall/model/conv4_block15_2_conv/Conv2D_weights", "op": "Const", "attr": {"dtype": {"type": "DT_FLOAT"}, "value": {"tensor": {"dtype": "DT_FLOAT", "tensorShape": {"dim": [{"size": "3"}, {"size": "3"}, {"size": "256"}, {"size": "256"}]}}}}}, {"name": "StatefulPartitionedCall/model/conv4_block15_2_conv/Conv2D_bn_offset", "op": "Const", "attr": {"dtype": {"type": "DT_FLOAT"}, "value": {"tensor": {"dtype": "DT_FLOAT", "tensorShape": {"dim": [{"size": "256"}]}}}}}, {"name": "StatefulPartitionedCall/model/conv4_block7_preact_bn/FusedBatchNormV3/Scaled", "op": "Const", "attr": {"dtype": {"type": "DT_FLOAT"}, "value": {"tensor": {"dtype": "DT_FLOAT", "tensorShape": {"dim": [{"size": "1024"}]}}}}}, {"name": "StatefulPartitionedCall/model/conv4_block16_1_conv/Conv2D_weights", "op": "Const", "attr": {"value": {"tensor": {"dtype": "DT_FLOAT", "tensorShape": {"dim": [{"size": "1"}, {"size": "1"}, {"size": "1024"}, {"size": "256"}]}}}, "dtype": {"type": "DT_FLOAT"}}}, {"name": "StatefulPartitionedCall/model/conv4_block16_1_conv/Conv2D_bn_offset", "op": "Const", "attr": {"dtype": {"type": "DT_FLOAT"}, "value": {"tensor": {"dtype": "DT_FLOAT", "tensorShape": {"dim": [{"size": "256"}]}}}}}, {"name": "StatefulPartitionedCall/model/conv4_block16_2_conv/Conv2D_weights", "op": "Const", "attr": {"dtype": {"type": "DT_FLOAT"}, "value": {"tensor": {"dtype": "DT_FLOAT", "tensorShape": {"dim": [{"size": "3"}, {"size": "3"}, {"size": "256"}, {"size": "256"}]}}}}}, {"name": "StatefulPartitionedCall/model/conv4_block7_preact_bn/FusedBatchNormV3/Offset", "op": "Const", "attr": {"value": {"tensor": {"dtype": "DT_FLOAT", "tensorShape": {"dim": [{"size": "1024"}]}}}, "dtype": {"type": "DT_FLOAT"}}}, {"name": "StatefulPartitionedCall/model/conv4_block16_2_conv/Conv2D_bn_offset", "op": "Const", "attr": {"dtype": {"type": "DT_FLOAT"}, "value": {"tensor": {"dtype": "DT_FLOAT", "tensorShape": {"dim": [{"size": "256"}]}}}}}, {"name": "StatefulPartitionedCall/model/conv4_block17_1_conv/Conv2D_weights", "op": "Const", "attr": {"dtype": {"type": "DT_FLOAT"}, "value": {"tensor": {"dtype": "DT_FLOAT", "tensorShape": {"dim": [{"size": "1"}, {"size": "1"}, {"size": "1024"}, {"size": "256"}]}}}}}, {"name": "StatefulPartitionedCall/model/conv4_block17_1_conv/Conv2D_bn_offset", "op": "Const", "attr": {"dtype": {"type": "DT_FLOAT"}, "value": {"tensor": {"dtype": "DT_FLOAT", "tensorShape": {"dim": [{"size": "256"}]}}}}}, {"name": "StatefulPartitionedCall/model/conv4_block6_preact_bn/FusedBatchNormV3/Scaled", "op": "Const", "attr": {"value": {"tensor": {"dtype": "DT_FLOAT", "tensorShape": {"dim": [{"size": "1024"}]}}}, "dtype": {"type": "DT_FLOAT"}}}, {"name": "StatefulPartitionedCall/model/conv4_block17_2_conv/Conv2D_weights", "op": "Const", "attr": {"dtype": {"type": "DT_FLOAT"}, "value": {"tensor": {"dtype": "DT_FLOAT", "tensorShape": {"dim": [{"size": "3"}, {"size": "3"}, {"size": "256"}, {"size": "256"}]}}}}}, {"name": "StatefulPartitionedCall/model/conv4_block17_2_conv/Conv2D_bn_offset", "op": "Const", "attr": {"value": {"tensor": {"dtype": "DT_FLOAT", "tensorShape": {"dim": [{"size": "256"}]}}}, "dtype": {"type": "DT_FLOAT"}}}, {"name": "StatefulPartitionedCall/model/conv4_block6_preact_bn/FusedBatchNormV3/Offset", "op": "Const", "attr": {"value": {"tensor": {"dtype": "DT_FLOAT", "tensorShape": {"dim": [{"size": "1024"}]}}}, "dtype": {"type": "DT_FLOAT"}}}, {"name": "StatefulPartitionedCall/model/conv4_block18_1_conv/Conv2D_weights", "op": "Const", "attr": {"dtype": {"type": "DT_FLOAT"}, "value": {"tensor": {"dtype": "DT_FLOAT", "tensorShape": {"dim": [{"size": "1"}, {"size": "1"}, {"size": "1024"}, {"size": "256"}]}}}}}, {"name": "StatefulPartitionedCall/model/conv4_block18_1_conv/Conv2D_bn_offset", "op": "Const", "attr": {"value": {"tensor": {"dtype": "DT_FLOAT", "tensorShape": {"dim": [{"size": "256"}]}}}, "dtype": {"type": "DT_FLOAT"}}}, {"name": "StatefulPartitionedCall/model/conv4_block18_2_conv/Conv2D_weights", "op": "Const", "attr": {"dtype": {"type": "DT_FLOAT"}, "value": {"tensor": {"dtype": "DT_FLOAT", "tensorShape": {"dim": [{"size": "3"}, {"size": "3"}, {"size": "256"}, {"size": "256"}]}}}}}, {"name": "StatefulPartitionedCall/model/conv4_block18_2_conv/Conv2D_bn_offset", "op": "Const", "attr": {"dtype": {"type": "DT_FLOAT"}, "value": {"tensor": {"dtype": "DT_FLOAT", "tensorShape": {"dim": [{"size": "256"}]}}}}}, {"name": "StatefulPartitionedCall/model/conv4_block5_preact_bn/FusedBatchNormV3/Scaled", "op": "Const", "attr": {"dtype": {"type": "DT_FLOAT"}, "value": {"tensor": {"dtype": "DT_FLOAT", "tensorShape": {"dim": [{"size": "1024"}]}}}}}, {"name": "StatefulPartitionedCall/model/conv4_block19_1_conv/Conv2D_weights", "op": "Const", "attr": {"value": {"tensor": {"dtype": "DT_FLOAT", "tensorShape": {"dim": [{"size": "1"}, {"size": "1"}, {"size": "1024"}, {"size": "256"}]}}}, "dtype": {"type": "DT_FLOAT"}}}, {"name": "StatefulPartitionedCall/model/conv4_block19_1_conv/Conv2D_bn_offset", "op": "Const", "attr": {"dtype": {"type": "DT_FLOAT"}, "value": {"tensor": {"dtype": "DT_FLOAT", "tensorShape": {"dim": [{"size": "256"}]}}}}}, {"name": "StatefulPartitionedCall/model/conv4_block5_preact_bn/FusedBatchNormV3/Offset", "op": "Const", "attr": {"dtype": {"type": "DT_FLOAT"}, "value": {"tensor": {"dtype": "DT_FLOAT", "tensorShape": {"dim": [{"size": "1024"}]}}}}}, {"name": "StatefulPartitionedCall/model/conv4_block19_2_conv/Conv2D_weights", "op": "Const", "attr": {"dtype": {"type": "DT_FLOAT"}, "value": {"tensor": {"dtype": "DT_FLOAT", "tensorShape": {"dim": [{"size": "3"}, {"size": "3"}, {"size": "256"}, {"size": "256"}]}}}}}, {"name": "StatefulPartitionedCall/model/conv4_block19_2_conv/Conv2D_bn_offset", "op": "Const", "attr": {"value": {"tensor": {"dtype": "DT_FLOAT", "tensorShape": {"dim": [{"size": "256"}]}}}, "dtype": {"type": "DT_FLOAT"}}}, {"name": "StatefulPartitionedCall/model/conv4_block20_1_conv/Conv2D_weights", "op": "Const", "attr": {"value": {"tensor": {"dtype": "DT_FLOAT", "tensorShape": {"dim": [{"size": "1"}, {"size": "1"}, {"size": "1024"}, {"size": "256"}]}}}, "dtype": {"type": "DT_FLOAT"}}}, {"name": "StatefulPartitionedCall/model/conv4_block4_preact_bn/FusedBatchNormV3/Scaled", "op": "Const", "attr": {"value": {"tensor": {"dtype": "DT_FLOAT", "tensorShape": {"dim": [{"size": "1024"}]}}}, "dtype": {"type": "DT_FLOAT"}}}, {"name": "StatefulPartitionedCall/model/conv4_block20_1_conv/Conv2D_bn_offset", "op": "Const", "attr": {"value": {"tensor": {"dtype": "DT_FLOAT", "tensorShape": {"dim": [{"size": "256"}]}}}, "dtype": {"type": "DT_FLOAT"}}}, {"name": "StatefulPartitionedCall/model/conv4_block20_2_conv/Conv2D_weights", "op": "Const", "attr": {"dtype": {"type": "DT_FLOAT"}, "value": {"tensor": {"dtype": "DT_FLOAT", "tensorShape": {"dim": [{"size": "3"}, {"size": "3"}, {"size": "256"}, {"size": "256"}]}}}}}, {"name": "StatefulPartitionedCall/model/conv4_block20_2_conv/Conv2D_bn_offset", "op": "Const", "attr": {"value": {"tensor": {"dtype": "DT_FLOAT", "tensorShape": {"dim": [{"size": "256"}]}}}, "dtype": {"type": "DT_FLOAT"}}}, {"name": "StatefulPartitionedCall/model/conv4_block4_preact_bn/FusedBatchNormV3/Offset", "op": "Const", "attr": {"dtype": {"type": "DT_FLOAT"}, "value": {"tensor": {"dtype": "DT_FLOAT", "tensorShape": {"dim": [{"size": "1024"}]}}}}}, {"name": "StatefulPartitionedCall/model/conv4_block21_1_conv/Conv2D_weights", "op": "Const", "attr": {"dtype": {"type": "DT_FLOAT"}, "value": {"tensor": {"dtype": "DT_FLOAT", "tensorShape": {"dim": [{"size": "1"}, {"size": "1"}, {"size": "1024"}, {"size": "256"}]}}}}}, {"name": "StatefulPartitionedCall/model/conv4_block21_1_conv/Conv2D_bn_offset", "op": "Const", "attr": {"dtype": {"type": "DT_FLOAT"}, "value": {"tensor": {"dtype": "DT_FLOAT", "tensorShape": {"dim": [{"size": "256"}]}}}}}, {"name": "StatefulPartitionedCall/model/conv4_block21_2_conv/Conv2D_weights", "op": "Const", "attr": {"value": {"tensor": {"dtype": "DT_FLOAT", "tensorShape": {"dim": [{"size": "3"}, {"size": "3"}, {"size": "256"}, {"size": "256"}]}}}, "dtype": {"type": "DT_FLOAT"}}}, {"name": "StatefulPartitionedCall/model/conv4_block3_preact_bn/FusedBatchNormV3/Scaled", "op": "Const", "attr": {"dtype": {"type": "DT_FLOAT"}, "value": {"tensor": {"dtype": "DT_FLOAT", "tensorShape": {"dim": [{"size": "1024"}]}}}}}, {"name": "StatefulPartitionedCall/model/conv4_block21_2_conv/Conv2D_bn_offset", "op": "Const", "attr": {"value": {"tensor": {"dtype": "DT_FLOAT", "tensorShape": {"dim": [{"size": "256"}]}}}, "dtype": {"type": "DT_FLOAT"}}}, {"name": "StatefulPartitionedCall/model/conv4_block22_1_conv/Conv2D_weights", "op": "Const", "attr": {"value": {"tensor": {"dtype": "DT_FLOAT", "tensorShape": {"dim": [{"size": "1"}, {"size": "1"}, {"size": "1024"}, {"size": "256"}]}}}, "dtype": {"type": "DT_FLOAT"}}}, {"name": "StatefulPartitionedCall/model/conv4_block3_preact_bn/FusedBatchNormV3/Offset", "op": "Const", "attr": {"dtype": {"type": "DT_FLOAT"}, "value": {"tensor": {"dtype": "DT_FLOAT", "tensorShape": {"dim": [{"size": "1024"}]}}}}}, {"name": "StatefulPartitionedCall/model/conv4_block22_1_conv/Conv2D_bn_offset", "op": "Const", "attr": {"dtype": {"type": "DT_FLOAT"}, "value": {"tensor": {"dtype": "DT_FLOAT", "tensorShape": {"dim": [{"size": "256"}]}}}}}, {"name": "StatefulPartitionedCall/model/conv4_block22_2_conv/Conv2D_weights", "op": "Const", "attr": {"dtype": {"type": "DT_FLOAT"}, "value": {"tensor": {"dtype": "DT_FLOAT", "tensorShape": {"dim": [{"size": "3"}, {"size": "3"}, {"size": "256"}, {"size": "256"}]}}}}}, {"name": "StatefulPartitionedCall/model/conv4_block22_2_conv/Conv2D_bn_offset", "op": "Const", "attr": {"dtype": {"type": "DT_FLOAT"}, "value": {"tensor": {"dtype": "DT_FLOAT", "tensorShape": {"dim": [{"size": "256"}]}}}}}, {"name": "StatefulPartitionedCall/model/conv4_block2_preact_bn/FusedBatchNormV3/Scaled", "op": "Const", "attr": {"value": {"tensor": {"dtype": "DT_FLOAT", "tensorShape": {"dim": [{"size": "1024"}]}}}, "dtype": {"type": "DT_FLOAT"}}}, {"name": "StatefulPartitionedCall/model/conv4_block23_1_conv/Conv2D_weights", "op": "Const", "attr": {"dtype": {"type": "DT_FLOAT"}, "value": {"tensor": {"dtype": "DT_FLOAT", "tensorShape": {"dim": [{"size": "1"}, {"size": "1"}, {"size": "1024"}, {"size": "256"}]}}}}}, {"name": "StatefulPartitionedCall/model/conv4_block23_1_conv/Conv2D_bn_offset", "op": "Const", "attr": {"value": {"tensor": {"dtype": "DT_FLOAT", "tensorShape": {"dim": [{"size": "256"}]}}}, "dtype": {"type": "DT_FLOAT"}}}, {"name": "StatefulPartitionedCall/model/conv4_block23_2_conv/Conv2D_weights", "op": "Const", "attr": {"value": {"tensor": {"dtype": "DT_FLOAT", "tensorShape": {"dim": [{"size": "3"}, {"size": "3"}, {"size": "256"}, {"size": "256"}]}}}, "dtype": {"type": "DT_FLOAT"}}}, {"name": "StatefulPartitionedCall/model/conv4_block2_preact_bn/FusedBatchNormV3/Offset", "op": "Const", "attr": {"value": {"tensor": {"dtype": "DT_FLOAT", "tensorShape": {"dim": [{"size": "1024"}]}}}, "dtype": {"type": "DT_FLOAT"}}}, {"name": "StatefulPartitionedCall/model/conv4_block23_2_conv/Conv2D_bn_offset", "op": "Const", "attr": {"dtype": {"type": "DT_FLOAT"}, "value": {"tensor": {"dtype": "DT_FLOAT", "tensorShape": {"dim": [{"size": "256"}]}}}}}, {"name": "StatefulPartitionedCall/model/conv4_block24_1_conv/Conv2D_weights", "op": "Const", "attr": {"dtype": {"type": "DT_FLOAT"}, "value": {"tensor": {"dtype": "DT_FLOAT", "tensorShape": {"dim": [{"size": "1"}, {"size": "1"}, {"size": "1024"}, {"size": "256"}]}}}}}, {"name": "StatefulPartitionedCall/model/conv4_block24_1_conv/Conv2D_bn_offset", "op": "Const", "attr": {"dtype": {"type": "DT_FLOAT"}, "value": {"tensor": {"dtype": "DT_FLOAT", "tensorShape": {"dim": [{"size": "256"}]}}}}}, {"name": "StatefulPartitionedCall/model/conv4_block1_preact_bn/FusedBatchNormV3/Scaled", "op": "Const", "attr": {"dtype": {"type": "DT_FLOAT"}, "value": {"tensor": {"dtype": "DT_FLOAT", "tensorShape": {"dim": [{"size": "512"}]}}}}}, {"name": "StatefulPartitionedCall/model/conv4_block24_2_conv/Conv2D_weights", "op": "Const", "attr": {"dtype": {"type": "DT_FLOAT"}, "value": {"tensor": {"dtype": "DT_FLOAT", "tensorShape": {"dim": [{"size": "3"}, {"size": "3"}, {"size": "256"}, {"size": "256"}]}}}}}, {"name": "StatefulPartitionedCall/model/conv4_block24_2_conv/Conv2D_bn_offset", "op": "Const", "attr": {"dtype": {"type": "DT_FLOAT"}, "value": {"tensor": {"dtype": "DT_FLOAT", "tensorShape": {"dim": [{"size": "256"}]}}}}}, {"name": "StatefulPartitionedCall/model/conv4_block1_preact_bn/FusedBatchNormV3/Offset", "op": "Const", "attr": {"dtype": {"type": "DT_FLOAT"}, "value": {"tensor": {"dtype": "DT_FLOAT", "tensorShape": {"dim": [{"size": "512"}]}}}}}, {"name": "StatefulPartitionedCall/model/conv4_block25_1_conv/Conv2D_weights", "op": "Const", "attr": {"dtype": {"type": "DT_FLOAT"}, "value": {"tensor": {"dtype": "DT_FLOAT", "tensorShape": {"dim": [{"size": "1"}, {"size": "1"}, {"size": "1024"}, {"size": "256"}]}}}}}, {"name": "StatefulPartitionedCall/model/conv4_block25_1_conv/Conv2D_bn_offset", "op": "Const", "attr": {"value": {"tensor": {"dtype": "DT_FLOAT", "tensorShape": {"dim": [{"size": "256"}]}}}, "dtype": {"type": "DT_FLOAT"}}}, {"name": "StatefulPartitionedCall/model/conv4_block25_2_conv/Conv2D_weights", "op": "Const", "attr": {"dtype": {"type": "DT_FLOAT"}, "value": {"tensor": {"dtype": "DT_FLOAT", "tensorShape": {"dim": [{"size": "3"}, {"size": "3"}, {"size": "256"}, {"size": "256"}]}}}}}, {"name": "StatefulPartitionedCall/model/conv4_block25_2_conv/Conv2D_bn_offset", "op": "Const", "attr": {"dtype": {"type": "DT_FLOAT"}, "value": {"tensor": {"dtype": "DT_FLOAT", "tensorShape": {"dim": [{"size": "256"}]}}}}}, {"name": "StatefulPartitionedCall/model/conv3_block8_preact_bn/FusedBatchNormV3/Scaled", "op": "Const", "attr": {"dtype": {"type": "DT_FLOAT"}, "value": {"tensor": {"dtype": "DT_FLOAT", "tensorShape": {"dim": [{"size": "512"}]}}}}}, {"name": "StatefulPartitionedCall/model/conv4_block26_1_conv/Conv2D_weights", "op": "Const", "attr": {"dtype": {"type": "DT_FLOAT"}, "value": {"tensor": {"dtype": "DT_FLOAT", "tensorShape": {"dim": [{"size": "1"}, {"size": "1"}, {"size": "1024"}, {"size": "256"}]}}}}}, {"name": "StatefulPartitionedCall/model/conv4_block26_1_conv/Conv2D_bn_offset", "op": "Const", "attr": {"value": {"tensor": {"dtype": "DT_FLOAT", "tensorShape": {"dim": [{"size": "256"}]}}}, "dtype": {"type": "DT_FLOAT"}}}, {"name": "StatefulPartitionedCall/model/conv3_block8_preact_bn/FusedBatchNormV3/Offset", "op": "Const", "attr": {"dtype": {"type": "DT_FLOAT"}, "value": {"tensor": {"dtype": "DT_FLOAT", "tensorShape": {"dim": [{"size": "512"}]}}}}}, {"name": "StatefulPartitionedCall/model/conv4_block26_2_conv/Conv2D_weights", "op": "Const", "attr": {"value": {"tensor": {"dtype": "DT_FLOAT", "tensorShape": {"dim": [{"size": "3"}, {"size": "3"}, {"size": "256"}, {"size": "256"}]}}}, "dtype": {"type": "DT_FLOAT"}}}, {"name": "StatefulPartitionedCall/model/conv4_block26_2_conv/Conv2D_bn_offset", "op": "Const", "attr": {"dtype": {"type": "DT_FLOAT"}, "value": {"tensor": {"dtype": "DT_FLOAT", "tensorShape": {"dim": [{"size": "256"}]}}}}}, {"name": "StatefulPartitionedCall/model/conv4_block27_1_conv/Conv2D_weights", "op": "Const", "attr": {"dtype": {"type": "DT_FLOAT"}, "value": {"tensor": {"dtype": "DT_FLOAT", "tensorShape": {"dim": [{"size": "1"}, {"size": "1"}, {"size": "1024"}, {"size": "256"}]}}}}}, {"name": "StatefulPartitionedCall/model/conv3_block7_preact_bn/FusedBatchNormV3/Scaled", "op": "Const", "attr": {"value": {"tensor": {"dtype": "DT_FLOAT", "tensorShape": {"dim": [{"size": "512"}]}}}, "dtype": {"type": "DT_FLOAT"}}}, {"name": "StatefulPartitionedCall/model/conv4_block27_1_conv/Conv2D_bn_offset", "op": "Const", "attr": {"value": {"tensor": {"dtype": "DT_FLOAT", "tensorShape": {"dim": [{"size": "256"}]}}}, "dtype": {"type": "DT_FLOAT"}}}, {"name": "StatefulPartitionedCall/model/conv4_block27_2_conv/Conv2D_weights", "op": "Const", "attr": {"value": {"tensor": {"dtype": "DT_FLOAT", "tensorShape": {"dim": [{"size": "3"}, {"size": "3"}, {"size": "256"}, {"size": "256"}]}}}, "dtype": {"type": "DT_FLOAT"}}}, {"name": "StatefulPartitionedCall/model/conv4_block27_2_conv/Conv2D_bn_offset", "op": "Const", "attr": {"dtype": {"type": "DT_FLOAT"}, "value": {"tensor": {"dtype": "DT_FLOAT", "tensorShape": {"dim": [{"size": "256"}]}}}}}, {"name": "StatefulPartitionedCall/model/conv3_block7_preact_bn/FusedBatchNormV3/Offset", "op": "Const", "attr": {"value": {"tensor": {"dtype": "DT_FLOAT", "tensorShape": {"dim": [{"size": "512"}]}}}, "dtype": {"type": "DT_FLOAT"}}}, {"name": "StatefulPartitionedCall/model/conv4_block28_1_conv/Conv2D_weights", "op": "Const", "attr": {"value": {"tensor": {"dtype": "DT_FLOAT", "tensorShape": {"dim": [{"size": "1"}, {"size": "1"}, {"size": "1024"}, {"size": "256"}]}}}, "dtype": {"type": "DT_FLOAT"}}}, {"name": "StatefulPartitionedCall/model/conv4_block28_1_conv/Conv2D_bn_offset", "op": "Const", "attr": {"dtype": {"type": "DT_FLOAT"}, "value": {"tensor": {"dtype": "DT_FLOAT", "tensorShape": {"dim": [{"size": "256"}]}}}}}, {"name": "StatefulPartitionedCall/model/conv4_block28_2_conv/Conv2D_weights", "op": "Const", "attr": {"dtype": {"type": "DT_FLOAT"}, "value": {"tensor": {"dtype": "DT_FLOAT", "tensorShape": {"dim": [{"size": "3"}, {"size": "3"}, {"size": "256"}, {"size": "256"}]}}}}}, {"name": "StatefulPartitionedCall/model/conv3_block6_preact_bn/FusedBatchNormV3/Scaled", "op": "Const", "attr": {"value": {"tensor": {"dtype": "DT_FLOAT", "tensorShape": {"dim": [{"size": "512"}]}}}, "dtype": {"type": "DT_FLOAT"}}}, {"name": "StatefulPartitionedCall/model/conv4_block28_2_conv/Conv2D_bn_offset", "op": "Const", "attr": {"dtype": {"type": "DT_FLOAT"}, "value": {"tensor": {"dtype": "DT_FLOAT", "tensorShape": {"dim": [{"size": "256"}]}}}}}, {"name": "StatefulPartitionedCall/model/conv4_block29_1_conv/Conv2D_weights", "op": "Const", "attr": {"value": {"tensor": {"dtype": "DT_FLOAT", "tensorShape": {"dim": [{"size": "1"}, {"size": "1"}, {"size": "1024"}, {"size": "256"}]}}}, "dtype": {"type": "DT_FLOAT"}}}, {"name": "StatefulPartitionedCall/model/conv3_block6_preact_bn/FusedBatchNormV3/Offset", "op": "Const", "attr": {"value": {"tensor": {"dtype": "DT_FLOAT", "tensorShape": {"dim": [{"size": "512"}]}}}, "dtype": {"type": "DT_FLOAT"}}}, {"name": "StatefulPartitionedCall/model/conv4_block29_1_conv/Conv2D_bn_offset", "op": "Const", "attr": {"value": {"tensor": {"dtype": "DT_FLOAT", "tensorShape": {"dim": [{"size": "256"}]}}}, "dtype": {"type": "DT_FLOAT"}}}, {"name": "StatefulPartitionedCall/model/conv4_block29_2_conv/Conv2D_weights", "op": "Const", "attr": {"dtype": {"type": "DT_FLOAT"}, "value": {"tensor": {"dtype": "DT_FLOAT", "tensorShape": {"dim": [{"size": "3"}, {"size": "3"}, {"size": "256"}, {"size": "256"}]}}}}}, {"name": "StatefulPartitionedCall/model/conv4_block29_2_conv/Conv2D_bn_offset", "op": "Const", "attr": {"dtype": {"type": "DT_FLOAT"}, "value": {"tensor": {"dtype": "DT_FLOAT", "tensorShape": {"dim": [{"size": "256"}]}}}}}, {"name": "StatefulPartitionedCall/model/conv3_block5_preact_bn/FusedBatchNormV3/Scaled", "op": "Const", "attr": {"dtype": {"type": "DT_FLOAT"}, "value": {"tensor": {"dtype": "DT_FLOAT", "tensorShape": {"dim": [{"size": "512"}]}}}}}, {"name": "StatefulPartitionedCall/model/conv4_block30_1_conv/Conv2D_weights", "op": "Const", "attr": {"dtype": {"type": "DT_FLOAT"}, "value": {"tensor": {"dtype": "DT_FLOAT", "tensorShape": {"dim": [{"size": "1"}, {"size": "1"}, {"size": "1024"}, {"size": "256"}]}}}}}, {"name": "StatefulPartitionedCall/model/conv4_block30_1_conv/Conv2D_bn_offset", "op": "Const", "attr": {"dtype": {"type": "DT_FLOAT"}, "value": {"tensor": {"dtype": "DT_FLOAT", "tensorShape": {"dim": [{"size": "256"}]}}}}}, {"name": "StatefulPartitionedCall/model/conv4_block30_2_conv/Conv2D_weights", "op": "Const", "attr": {"value": {"tensor": {"dtype": "DT_FLOAT", "tensorShape": {"dim": [{"size": "3"}, {"size": "3"}, {"size": "256"}, {"size": "256"}]}}}, "dtype": {"type": "DT_FLOAT"}}}, {"name": "StatefulPartitionedCall/model/conv3_block5_preact_bn/FusedBatchNormV3/Offset", "op": "Const", "attr": {"dtype": {"type": "DT_FLOAT"}, "value": {"tensor": {"dtype": "DT_FLOAT", "tensorShape": {"dim": [{"size": "512"}]}}}}}, {"name": "StatefulPartitionedCall/model/conv4_block30_2_conv/Conv2D_bn_offset", "op": "Const", "attr": {"dtype": {"type": "DT_FLOAT"}, "value": {"tensor": {"dtype": "DT_FLOAT", "tensorShape": {"dim": [{"size": "256"}]}}}}}, {"name": "StatefulPartitionedCall/model/conv4_block31_1_conv/Conv2D_weights", "op": "Const", "attr": {"value": {"tensor": {"dtype": "DT_FLOAT", "tensorShape": {"dim": [{"size": "1"}, {"size": "1"}, {"size": "1024"}, {"size": "256"}]}}}, "dtype": {"type": "DT_FLOAT"}}}, {"name": "StatefulPartitionedCall/model/conv4_block31_1_conv/Conv2D_bn_offset", "op": "Const", "attr": {"value": {"tensor": {"dtype": "DT_FLOAT", "tensorShape": {"dim": [{"size": "256"}]}}}, "dtype": {"type": "DT_FLOAT"}}}, {"name": "StatefulPartitionedCall/model/conv3_block4_preact_bn/FusedBatchNormV3/Scaled", "op": "Const", "attr": {"value": {"tensor": {"dtype": "DT_FLOAT", "tensorShape": {"dim": [{"size": "512"}]}}}, "dtype": {"type": "DT_FLOAT"}}}, {"name": "StatefulPartitionedCall/model/conv4_block31_2_conv/Conv2D_weights", "op": "Const", "attr": {"dtype": {"type": "DT_FLOAT"}, "value": {"tensor": {"dtype": "DT_FLOAT", "tensorShape": {"dim": [{"size": "3"}, {"size": "3"}, {"size": "256"}, {"size": "256"}]}}}}}, {"name": "StatefulPartitionedCall/model/conv4_block31_2_conv/Conv2D_bn_offset", "op": "Const", "attr": {"value": {"tensor": {"dtype": "DT_FLOAT", "tensorShape": {"dim": [{"size": "256"}]}}}, "dtype": {"type": "DT_FLOAT"}}}, {"name": "StatefulPartitionedCall/model/conv3_block4_preact_bn/FusedBatchNormV3/Offset", "op": "Const", "attr": {"dtype": {"type": "DT_FLOAT"}, "value": {"tensor": {"dtype": "DT_FLOAT", "tensorShape": {"dim": [{"size": "512"}]}}}}}, {"name": "StatefulPartitionedCall/model/conv4_block32_1_conv/Conv2D_weights", "op": "Const", "attr": {"dtype": {"type": "DT_FLOAT"}, "value": {"tensor": {"dtype": "DT_FLOAT", "tensorShape": {"dim": [{"size": "1"}, {"size": "1"}, {"size": "1024"}, {"size": "256"}]}}}}}, {"name": "StatefulPartitionedCall/model/conv4_block32_1_conv/Conv2D_bn_offset", "op": "Const", "attr": {"value": {"tensor": {"dtype": "DT_FLOAT", "tensorShape": {"dim": [{"size": "256"}]}}}, "dtype": {"type": "DT_FLOAT"}}}, {"name": "StatefulPartitionedCall/model/conv4_block32_2_conv/Conv2D_weights", "op": "Const", "attr": {"value": {"tensor": {"dtype": "DT_FLOAT", "tensorShape": {"dim": [{"size": "3"}, {"size": "3"}, {"size": "256"}, {"size": "256"}]}}}, "dtype": {"type": "DT_FLOAT"}}}, {"name": "StatefulPartitionedCall/model/conv4_block32_2_conv/Conv2D_bn_offset", "op": "Const", "attr": {"dtype": {"type": "DT_FLOAT"}, "value": {"tensor": {"dtype": "DT_FLOAT", "tensorShape": {"dim": [{"size": "256"}]}}}}}, {"name": "StatefulPartitionedCall/model/conv3_block3_preact_bn/FusedBatchNormV3/Scaled", "op": "Const", "attr": {"dtype": {"type": "DT_FLOAT"}, "value": {"tensor": {"dtype": "DT_FLOAT", "tensorShape": {"dim": [{"size": "512"}]}}}}}, {"name": "StatefulPartitionedCall/model/conv4_block33_1_conv/Conv2D_weights", "op": "Const", "attr": {"dtype": {"type": "DT_FLOAT"}, "value": {"tensor": {"dtype": "DT_FLOAT", "tensorShape": {"dim": [{"size": "1"}, {"size": "1"}, {"size": "1024"}, {"size": "256"}]}}}}}, {"name": "StatefulPartitionedCall/model/conv4_block33_1_conv/Conv2D_bn_offset", "op": "Const", "attr": {"value": {"tensor": {"dtype": "DT_FLOAT", "tensorShape": {"dim": [{"size": "256"}]}}}, "dtype": {"type": "DT_FLOAT"}}}, {"name": "StatefulPartitionedCall/model/conv3_block3_preact_bn/FusedBatchNormV3/Offset", "op": "Const", "attr": {"dtype": {"type": "DT_FLOAT"}, "value": {"tensor": {"dtype": "DT_FLOAT", "tensorShape": {"dim": [{"size": "512"}]}}}}}, {"name": "StatefulPartitionedCall/model/conv4_block33_2_conv/Conv2D_weights", "op": "Const", "attr": {"dtype": {"type": "DT_FLOAT"}, "value": {"tensor": {"dtype": "DT_FLOAT", "tensorShape": {"dim": [{"size": "3"}, {"size": "3"}, {"size": "256"}, {"size": "256"}]}}}}}, {"name": "StatefulPartitionedCall/model/conv4_block33_2_conv/Conv2D_bn_offset", "op": "Const", "attr": {"dtype": {"type": "DT_FLOAT"}, "value": {"tensor": {"dtype": "DT_FLOAT", "tensorShape": {"dim": [{"size": "256"}]}}}}}, {"name": "StatefulPartitionedCall/model/conv4_block34_1_conv/Conv2D_weights", "op": "Const", "attr": {"value": {"tensor": {"dtype": "DT_FLOAT", "tensorShape": {"dim": [{"size": "1"}, {"size": "1"}, {"size": "1024"}, {"size": "256"}]}}}, "dtype": {"type": "DT_FLOAT"}}}, {"name": "StatefulPartitionedCall/model/conv3_block2_preact_bn/FusedBatchNormV3/Scaled", "op": "Const", "attr": {"dtype": {"type": "DT_FLOAT"}, "value": {"tensor": {"dtype": "DT_FLOAT", "tensorShape": {"dim": [{"size": "512"}]}}}}}, {"name": "StatefulPartitionedCall/model/conv4_block34_1_conv/Conv2D_bn_offset", "op": "Const", "attr": {"value": {"tensor": {"dtype": "DT_FLOAT", "tensorShape": {"dim": [{"size": "256"}]}}}, "dtype": {"type": "DT_FLOAT"}}}, {"name": "StatefulPartitionedCall/model/conv4_block34_2_conv/Conv2D_weights", "op": "Const", "attr": {"dtype": {"type": "DT_FLOAT"}, "value": {"tensor": {"dtype": "DT_FLOAT", "tensorShape": {"dim": [{"size": "3"}, {"size": "3"}, {"size": "256"}, {"size": "256"}]}}}}}, {"name": "StatefulPartitionedCall/model/conv4_block34_2_conv/Conv2D_bn_offset", "op": "Const", "attr": {"value": {"tensor": {"dtype": "DT_FLOAT", "tensorShape": {"dim": [{"size": "256"}]}}}, "dtype": {"type": "DT_FLOAT"}}}, {"name": "StatefulPartitionedCall/model/conv3_block2_preact_bn/FusedBatchNormV3/Offset", "op": "Const", "attr": {"dtype": {"type": "DT_FLOAT"}, "value": {"tensor": {"dtype": "DT_FLOAT", "tensorShape": {"dim": [{"size": "512"}]}}}}}, {"name": "StatefulPartitionedCall/model/conv4_block35_1_conv/Conv2D_weights", "op": "Const", "attr": {"dtype": {"type": "DT_FLOAT"}, "value": {"tensor": {"dtype": "DT_FLOAT", "tensorShape": {"dim": [{"size": "1"}, {"size": "1"}, {"size": "1024"}, {"size": "256"}]}}}}}, {"name": "StatefulPartitionedCall/model/conv4_block35_1_conv/Conv2D_bn_offset", "op": "Const", "attr": {"value": {"tensor": {"dtype": "DT_FLOAT", "tensorShape": {"dim": [{"size": "256"}]}}}, "dtype": {"type": "DT_FLOAT"}}}, {"name": "StatefulPartitionedCall/model/conv4_block35_2_conv/Conv2D_weights", "op": "Const", "attr": {"value": {"tensor": {"dtype": "DT_FLOAT", "tensorShape": {"dim": [{"size": "3"}, {"size": "3"}, {"size": "256"}, {"size": "256"}]}}}, "dtype": {"type": "DT_FLOAT"}}}, {"name": "StatefulPartitionedCall/model/conv3_block1_preact_bn/FusedBatchNormV3/Scaled", "op": "Const", "attr": {"dtype": {"type": "DT_FLOAT"}, "value": {"tensor": {"dtype": "DT_FLOAT", "tensorShape": {"dim": [{"size": "256"}]}}}}}, {"name": "StatefulPartitionedCall/model/conv4_block35_2_conv/Conv2D_bn_offset", "op": "Const", "attr": {"value": {"tensor": {"dtype": "DT_FLOAT", "tensorShape": {"dim": [{"size": "256"}]}}}, "dtype": {"type": "DT_FLOAT"}}}, {"name": "StatefulPartitionedCall/model/conv4_block36_1_conv/Conv2D_weights", "op": "Const", "attr": {"dtype": {"type": "DT_FLOAT"}, "value": {"tensor": {"dtype": "DT_FLOAT", "tensorShape": {"dim": [{"size": "1"}, {"size": "1"}, {"size": "1024"}, {"size": "256"}]}}}}}, {"name": "StatefulPartitionedCall/model/conv3_block1_preact_bn/FusedBatchNormV3/Offset", "op": "Const", "attr": {"value": {"tensor": {"dtype": "DT_FLOAT", "tensorShape": {"dim": [{"size": "256"}]}}}, "dtype": {"type": "DT_FLOAT"}}}, {"name": "StatefulPartitionedCall/model/conv4_block36_1_conv/Conv2D_bn_offset", "op": "Const", "attr": {"value": {"tensor": {"dtype": "DT_FLOAT", "tensorShape": {"dim": [{"size": "256"}]}}}, "dtype": {"type": "DT_FLOAT"}}}, {"name": "StatefulPartitionedCall/model/conv4_block36_2_conv/Conv2D_weights", "op": "Const", "attr": {"dtype": {"type": "DT_FLOAT"}, "value": {"tensor": {"dtype": "DT_FLOAT", "tensorShape": {"dim": [{"size": "3"}, {"size": "3"}, {"size": "256"}, {"size": "256"}]}}}}}, {"name": "StatefulPartitionedCall/model/conv4_block36_2_conv/Conv2D_bn_offset", "op": "Const", "attr": {"dtype": {"type": "DT_FLOAT"}, "value": {"tensor": {"dtype": "DT_FLOAT", "tensorShape": {"dim": [{"size": "256"}]}}}}}, {"name": "StatefulPartitionedCall/model/conv2_block3_preact_bn/FusedBatchNormV3/Scaled", "op": "Const", "attr": {"value": {"tensor": {"dtype": "DT_FLOAT", "tensorShape": {"dim": [{"size": "256"}]}}}, "dtype": {"type": "DT_FLOAT"}}}, {"name": "StatefulPartitionedCall/model/conv5_block1_1_conv/Conv2D_weights", "op": "Const", "attr": {"value": {"tensor": {"dtype": "DT_FLOAT", "tensorShape": {"dim": [{"size": "1"}, {"size": "1"}, {"size": "1024"}, {"size": "512"}]}}}, "dtype": {"type": "DT_FLOAT"}}}, {"name": "StatefulPartitionedCall/model/conv5_block1_1_conv/Conv2D_bn_offset", "op": "Const", "attr": {"dtype": {"type": "DT_FLOAT"}, "value": {"tensor": {"dtype": "DT_FLOAT", "tensorShape": {"dim": [{"size": "512"}]}}}}}, {"name": "StatefulPartitionedCall/model/conv2_block3_preact_bn/FusedBatchNormV3/Offset", "op": "Const", "attr": {"value": {"tensor": {"dtype": "DT_FLOAT", "tensorShape": {"dim": [{"size": "256"}]}}}, "dtype": {"type": "DT_FLOAT"}}}, {"name": "StatefulPartitionedCall/model/conv5_block1_2_conv/Conv2D_weights", "op": "Const", "attr": {"value": {"tensor": {"dtype": "DT_FLOAT", "tensorShape": {"dim": [{"size": "3"}, {"size": "3"}, {"size": "512"}, {"size": "512"}]}}}, "dtype": {"type": "DT_FLOAT"}}}, {"name": "StatefulPartitionedCall/model/conv5_block1_2_conv/Conv2D_bn_offset", "op": "Const", "attr": {"dtype": {"type": "DT_FLOAT"}, "value": {"tensor": {"dtype": "DT_FLOAT", "tensorShape": {"dim": [{"size": "512"}]}}}}}, {"name": "StatefulPartitionedCall/model/conv5_block2_1_conv/Conv2D_weights", "op": "Const", "attr": {"value": {"tensor": {"dtype": "DT_FLOAT", "tensorShape": {"dim": [{"size": "1"}, {"size": "1"}, {"size": "2048"}, {"size": "512"}]}}}, "dtype": {"type": "DT_FLOAT"}}}, {"name": "StatefulPartitionedCall/model/conv2_block2_preact_bn/FusedBatchNormV3/Scaled", "op": "Const", "attr": {"value": {"tensor": {"dtype": "DT_FLOAT", "tensorShape": {"dim": [{"size": "256"}]}}}, "dtype": {"type": "DT_FLOAT"}}}, {"name": "StatefulPartitionedCall/model/conv5_block2_1_conv/Conv2D_bn_offset", "op": "Const", "attr": {"value": {"tensor": {"dtype": "DT_FLOAT", "tensorShape": {"dim": [{"size": "512"}]}}}, "dtype": {"type": "DT_FLOAT"}}}, {"name": "StatefulPartitionedCall/model/conv5_block2_2_conv/Conv2D_weights", "op": "Const", "attr": {"dtype": {"type": "DT_FLOAT"}, "value": {"tensor": {"dtype": "DT_FLOAT", "tensorShape": {"dim": [{"size": "3"}, {"size": "3"}, {"size": "512"}, {"size": "512"}]}}}}}, {"name": "StatefulPartitionedCall/model/conv5_block2_2_conv/Conv2D_bn_offset", "op": "Const", "attr": {"value": {"tensor": {"dtype": "DT_FLOAT", "tensorShape": {"dim": [{"size": "512"}]}}}, "dtype": {"type": "DT_FLOAT"}}}, {"name": "StatefulPartitionedCall/model/conv2_block2_preact_bn/FusedBatchNormV3/Offset", "op": "Const", "attr": {"value": {"tensor": {"dtype": "DT_FLOAT", "tensorShape": {"dim": [{"size": "256"}]}}}, "dtype": {"type": "DT_FLOAT"}}}, {"name": "StatefulPartitionedCall/model/conv5_block3_1_conv/Conv2D_weights", "op": "Const", "attr": {"dtype": {"type": "DT_FLOAT"}, "value": {"tensor": {"dtype": "DT_FLOAT", "tensorShape": {"dim": [{"size": "1"}, {"size": "1"}, {"size": "2048"}, {"size": "512"}]}}}}}, {"name": "StatefulPartitionedCall/model/conv5_block3_1_conv/Conv2D_bn_offset", "op": "Const", "attr": {"dtype": {"type": "DT_FLOAT"}, "value": {"tensor": {"dtype": "DT_FLOAT", "tensorShape": {"dim": [{"size": "512"}]}}}}}, {"name": "StatefulPartitionedCall/model/conv5_block3_2_conv/Conv2D_weights", "op": "Const", "attr": {"dtype": {"type": "DT_FLOAT"}, "value": {"tensor": {"dtype": "DT_FLOAT", "tensorShape": {"dim": [{"size": "3"}, {"size": "3"}, {"size": "512"}, {"size": "512"}]}}}}}, {"name": "StatefulPartitionedCall/model/conv2_block1_preact_bn/FusedBatchNormV3/Scaled", "op": "Const", "attr": {"value": {"tensor": {"dtype": "DT_FLOAT", "tensorShape": {"dim": [{"size": "64"}]}}}, "dtype": {"type": "DT_FLOAT"}}}, {"name": "StatefulPartitionedCall/model/conv5_block3_2_conv/Conv2D_bn_offset", "op": "Const", "attr": {"dtype": {"type": "DT_FLOAT"}, "value": {"tensor": {"dtype": "DT_FLOAT", "tensorShape": {"dim": [{"size": "512"}]}}}}}, {"name": "StatefulPartitionedCall/model/conv2_block1_preact_bn/FusedBatchNormV3/Offset", "op": "Const", "attr": {"dtype": {"type": "DT_FLOAT"}, "value": {"tensor": {"dtype": "DT_FLOAT", "tensorShape": {"dim": [{"size": "64"}]}}}}}, {"name": "StatefulPartitionedCall/model/post_bn/FusedBatchNormV3/Scaled", "op": "Const", "attr": {"value": {"tensor": {"dtype": "DT_FLOAT", "tensorShape": {"dim": [{"size": "2048"}]}}}, "dtype": {"type": "DT_FLOAT"}}}, {"name": "StatefulPartitionedCall/model/post_bn/FusedBatchNormV3/Offset", "op": "Const", "attr": {"dtype": {"type": "DT_FLOAT"}, "value": {"tensor": {"dtype": "DT_FLOAT", "tensorShape": {"dim": [{"size": "2048"}]}}}}}, {"name": "StatefulPartitionedCall/model/conv5_block3_preact_bn/FusedBatchNormV3/Scaled", "op": "Const", "attr": {"dtype": {"type": "DT_FLOAT"}, "value": {"tensor": {"dtype": "DT_FLOAT", "tensorShape": {"dim": [{"size": "2048"}]}}}}}, {"name": "StatefulPartitionedCall/model/conv5_block3_preact_bn/FusedBatchNormV3/Offset", "op": "Const", "attr": {"value": {"tensor": {"dtype": "DT_FLOAT", "tensorShape": {"dim": [{"size": "2048"}]}}}, "dtype": {"type": "DT_FLOAT"}}}, {"name": "StatefulPartitionedCall/model/conv5_block2_preact_bn/FusedBatchNormV3/Scaled", "op": "Const", "attr": {"value": {"tensor": {"dtype": "DT_FLOAT", "tensorShape": {"dim": [{"size": "2048"}]}}}, "dtype": {"type": "DT_FLOAT"}}}, {"name": "StatefulPartitionedCall/model/conv5_block2_preact_bn/FusedBatchNormV3/Offset", "op": "Const", "attr": {"value": {"tensor": {"dtype": "DT_FLOAT", "tensorShape": {"dim": [{"size": "2048"}]}}}, "dtype": {"type": "DT_FLOAT"}}}, {"name": "StatefulPartitionedCall/model/conv5_block1_preact_bn/FusedBatchNormV3/Scaled", "op": "Const", "attr": {"value": {"tensor": {"dtype": "DT_FLOAT", "tensorShape": {"dim": [{"size": "1024"}]}}}, "dtype": {"type": "DT_FLOAT"}}}, {"name": "StatefulPartitionedCall/model/conv5_block1_preact_bn/FusedBatchNormV3/Offset", "op": "Const", "attr": {"dtype": {"type": "DT_FLOAT"}, "value": {"tensor": {"dtype": "DT_FLOAT", "tensorShape": {"dim": [{"size": "1024"}]}}}}}, {"name": "StatefulPartitionedCall/model/conv4_block36_preact_bn/FusedBatchNormV3/Scaled", "op": "Const", "attr": {"dtype": {"type": "DT_FLOAT"}, "value": {"tensor": {"dtype": "DT_FLOAT", "tensorShape": {"dim": [{"size": "1024"}]}}}}}, {"name": "StatefulPartitionedCall/model/conv4_block36_preact_bn/FusedBatchNormV3/Offset", "op": "Const", "attr": {"dtype": {"type": "DT_FLOAT"}, "value": {"tensor": {"dtype": "DT_FLOAT", "tensorShape": {"dim": [{"size": "1024"}]}}}}}, {"name": "StatefulPartitionedCall/model/conv4_block35_preact_bn/FusedBatchNormV3/Scaled", "op": "Const", "attr": {"dtype": {"type": "DT_FLOAT"}, "value": {"tensor": {"dtype": "DT_FLOAT", "tensorShape": {"dim": [{"size": "1024"}]}}}}}, {"name": "StatefulPartitionedCall/model/conv4_block35_preact_bn/FusedBatchNormV3/Offset", "op": "Const", "attr": {"dtype": {"type": "DT_FLOAT"}, "value": {"tensor": {"dtype": "DT_FLOAT", "tensorShape": {"dim": [{"size": "1024"}]}}}}}, {"name": "StatefulPartitionedCall/model/conv4_block34_preact_bn/FusedBatchNormV3/Scaled", "op": "Const", "attr": {"value": {"tensor": {"dtype": "DT_FLOAT", "tensorShape": {"dim": [{"size": "1024"}]}}}, "dtype": {"type": "DT_FLOAT"}}}, {"name": "StatefulPartitionedCall/model/conv4_block34_preact_bn/FusedBatchNormV3/Offset", "op": "Const", "attr": {"value": {"tensor": {"dtype": "DT_FLOAT", "tensorShape": {"dim": [{"size": "1024"}]}}}, "dtype": {"type": "DT_FLOAT"}}}, {"name": "StatefulPartitionedCall/model/conv4_block33_preact_bn/FusedBatchNormV3/Scaled", "op": "Const", "attr": {"value": {"tensor": {"dtype": "DT_FLOAT", "tensorShape": {"dim": [{"size": "1024"}]}}}, "dtype": {"type": "DT_FLOAT"}}}, {"name": "StatefulPartitionedCall/model/conv4_block33_preact_bn/FusedBatchNormV3/Offset", "op": "Const", "attr": {"value": {"tensor": {"dtype": "DT_FLOAT", "tensorShape": {"dim": [{"size": "1024"}]}}}, "dtype": {"type": "DT_FLOAT"}}}, {"name": "StatefulPartitionedCall/model/conv4_block32_preact_bn/FusedBatchNormV3/Scaled", "op": "Const", "attr": {"dtype": {"type": "DT_FLOAT"}, "value": {"tensor": {"dtype": "DT_FLOAT", "tensorShape": {"dim": [{"size": "1024"}]}}}}}, {"name": "StatefulPartitionedCall/model/conv4_block32_preact_bn/FusedBatchNormV3/Offset", "op": "Const", "attr": {"dtype": {"type": "DT_FLOAT"}, "value": {"tensor": {"dtype": "DT_FLOAT", "tensorShape": {"dim": [{"size": "1024"}]}}}}}, {"name": "StatefulPartitionedCall/model/conv4_block31_preact_bn/FusedBatchNormV3/Scaled", "op": "Const", "attr": {"value": {"tensor": {"dtype": "DT_FLOAT", "tensorShape": {"dim": [{"size": "1024"}]}}}, "dtype": {"type": "DT_FLOAT"}}}, {"name": "StatefulPartitionedCall/model/conv4_block31_preact_bn/FusedBatchNormV3/Offset", "op": "Const", "attr": {"value": {"tensor": {"dtype": "DT_FLOAT", "tensorShape": {"dim": [{"size": "1024"}]}}}, "dtype": {"type": "DT_FLOAT"}}}, {"name": "StatefulPartitionedCall/model/conv4_block30_preact_bn/FusedBatchNormV3/Scaled", "op": "Const", "attr": {"value": {"tensor": {"dtype": "DT_FLOAT", "tensorShape": {"dim": [{"size": "1024"}]}}}, "dtype": {"type": "DT_FLOAT"}}}, {"name": "StatefulPartitionedCall/model/conv4_block30_preact_bn/FusedBatchNormV3/Offset", "op": "Const", "attr": {"dtype": {"type": "DT_FLOAT"}, "value": {"tensor": {"dtype": "DT_FLOAT", "tensorShape": {"dim": [{"size": "1024"}]}}}}}, {"name": "StatefulPartitionedCall/model/conv4_block29_preact_bn/FusedBatchNormV3/Scaled", "op": "Const", "attr": {"value": {"tensor": {"dtype": "DT_FLOAT", "tensorShape": {"dim": [{"size": "1024"}]}}}, "dtype": {"type": "DT_FLOAT"}}}, {"name": "StatefulPartitionedCall/model/conv4_block29_preact_bn/FusedBatchNormV3/Offset", "op": "Const", "attr": {"dtype": {"type": "DT_FLOAT"}, "value": {"tensor": {"dtype": "DT_FLOAT", "tensorShape": {"dim": [{"size": "1024"}]}}}}}, {"name": "StatefulPartitionedCall/model/conv4_block28_preact_bn/FusedBatchNormV3/Scaled", "op": "Const", "attr": {"dtype": {"type": "DT_FLOAT"}, "value": {"tensor": {"dtype": "DT_FLOAT", "tensorShape": {"dim": [{"size": "1024"}]}}}}}, {"name": "StatefulPartitionedCall/model/conv4_block28_preact_bn/FusedBatchNormV3/Offset", "op": "Const", "attr": {"dtype": {"type": "DT_FLOAT"}, "value": {"tensor": {"dtype": "DT_FLOAT", "tensorShape": {"dim": [{"size": "1024"}]}}}}}, {"name": "StatefulPartitionedCall/model/conv4_block27_preact_bn/FusedBatchNormV3/Scaled", "op": "Const", "attr": {"value": {"tensor": {"dtype": "DT_FLOAT", "tensorShape": {"dim": [{"size": "1024"}]}}}, "dtype": {"type": "DT_FLOAT"}}}, {"name": "StatefulPartitionedCall/model/conv4_block27_preact_bn/FusedBatchNormV3/Offset", "op": "Const", "attr": {"dtype": {"type": "DT_FLOAT"}, "value": {"tensor": {"dtype": "DT_FLOAT", "tensorShape": {"dim": [{"size": "1024"}]}}}}}, {"name": "StatefulPartitionedCall/model/conv1_pad/Pad", "op": "Pad", "input": ["input_1", "StatefulPartitionedCall/model/conv1_pad/Pad/paddings"], "attr": {"T": {"type": "DT_FLOAT"}, "Tpaddings": {"type": "DT_INT32"}}}, {"name": "StatefulPartitionedCall/model/conv1_conv/BiasAdd", "op": "_FusedConv2D", "input": ["StatefulPartitionedCall/model/conv1_pad/Pad", "StatefulPartitionedCall/model/conv1_conv/Conv2D/ReadVariableOp", "StatefulPartitionedCall/model/conv1_conv/BiasAdd/ReadVariableOp"], "device": "/device:CPU:0", "attr": {"padding": {"s": "VkFMSUQ="}, "data_format": {"s": "TkhXQw=="}, "explicit_paddings": {"list": {}}, "T": {"type": "DT_FLOAT"}, "strides": {"list": {"i": ["1", "2", "2", "1"]}}, "dilations": {"list": {"i": ["1", "1", "1", "1"]}}, "epsilon": {"f": 0.0}, "num_args": {"i": "1"}, "use_cudnn_on_gpu": {"b": true}, "fused_ops": {"list": {"s": ["Qmlhc0FkZA=="]}}}}, {"name": "StatefulPartitionedCall/model/pool1_pad/Pad", "op": "Pad", "input": ["StatefulPartitionedCall/model/conv1_conv/BiasAdd", "StatefulPartitionedCall/model/pool1_pad/Pad/paddings"], "attr": {"Tpaddings": {"type": "DT_INT32"}, "T": {"type": "DT_FLOAT"}}}, {"name": "StatefulPartitionedCall/model/pool1_pool/MaxPool", "op": "MaxPool", "input": ["StatefulPartitionedCall/model/pool1_pad/Pad"], "attr": {"ksize": {"list": {"i": ["1", "3", "3", "1"]}}, "padding": {"s": "VkFMSUQ="}, "explicit_paddings": {"list": {}}, "data_format": {"s": "TkhXQw=="}, "T": {"type": "DT_FLOAT"}, "strides": {"list": {"i": ["1", "2", "2", "1"]}}}}, {"name": "StatefulPartitionedCall/model/conv2_block1_preact_bn/FusedBatchNormV3/Mul", "op": "Mul", "input": ["StatefulPartitionedCall/model/pool1_pool/MaxPool", "StatefulPartitionedCall/model/conv2_block1_preact_bn/FusedBatchNormV3/Scaled"], "attr": {"T": {"type": "DT_FLOAT"}}}, {"name": "StatefulPartitionedCall/model/conv2_block1_preact_bn/FusedBatchNormV3", "op": "Add", "input": ["StatefulPartitionedCall/model/conv2_block1_preact_bn/FusedBatchNormV3/Mul", "StatefulPartitionedCall/model/conv2_block1_preact_bn/FusedBatchNormV3/Offset"], "attr": {"T": {"type": "DT_FLOAT"}}}, {"name": "StatefulPartitionedCall/model/conv2_block1_preact_relu/Relu", "op": "Relu", "input": ["StatefulPartitionedCall/model/conv2_block1_preact_bn/FusedBatchNormV3"], "attr": {"T": {"type": "DT_FLOAT"}}}, {"name": "StatefulPartitionedCall/model/conv2_block1_0_conv/BiasAdd", "op": "_FusedConv2D", "input": ["StatefulPartitionedCall/model/conv2_block1_preact_relu/Relu", "StatefulPartitionedCall/model/conv2_block1_0_conv/Conv2D/ReadVariableOp", "StatefulPartitionedCall/model/conv2_block1_0_conv/BiasAdd/ReadVariableOp"], "device": "/device:CPU:0", "attr": {"explicit_paddings": {"list": {}}, "num_args": {"i": "1"}, "T": {"type": "DT_FLOAT"}, "padding": {"s": "VkFMSUQ="}, "epsilon": {"f": 0.0}, "strides": {"list": {"i": ["1", "1", "1", "1"]}}, "data_format": {"s": "TkhXQw=="}, "dilations": {"list": {"i": ["1", "1", "1", "1"]}}, "fused_ops": {"list": {"s": ["Qmlhc0FkZA=="]}}, "use_cudnn_on_gpu": {"b": true}}}, {"name": "StatefulPartitionedCall/model/conv2_block1_1_relu/Relu", "op": "_FusedConv2D", "input": ["StatefulPartitionedCall/model/conv2_block1_preact_relu/Relu", "StatefulPartitionedCall/model/conv2_block1_1_conv/Conv2D_weights", "StatefulPartitionedCall/model/conv2_block1_1_conv/Conv2D_bn_offset"], "device": "/device:CPU:0", "attr": {"explicit_paddings": {"list": {}}, "epsilon": {"f": 0.0}, "padding": {"s": "VkFMSUQ="}, "data_format": {"s": "TkhXQw=="}, "dilations": {"list": {"i": ["1", "1", "1", "1"]}}, "num_args": {"i": "1"}, "fused_ops": {"list": {"s": ["Qmlhc0FkZA==", "UmVsdQ=="]}}, "use_cudnn_on_gpu": {"b": true}, "strides": {"list": {"i": ["1", "1", "1", "1"]}}, "T": {"type": "DT_FLOAT"}}}, {"name": "StatefulPartitionedCall/model/conv2_block1_2_pad/Pad", "op": "Pad", "input": ["StatefulPartitionedCall/model/conv2_block1_1_relu/Relu", "StatefulPartitionedCall/model/conv2_block1_2_pad/Pad/paddings"], "attr": {"Tpaddings": {"type": "DT_INT32"}, "T": {"type": "DT_FLOAT"}}}, {"name": "StatefulPartitionedCall/model/conv2_block1_2_relu/Relu", "op": "_FusedConv2D", "input": ["StatefulPartitionedCall/model/conv2_block1_2_pad/Pad", "StatefulPartitionedCall/model/conv2_block1_2_conv/Conv2D_weights", "StatefulPartitionedCall/model/conv2_block1_2_conv/Conv2D_bn_offset"], "device": "/device:CPU:0", "attr": {"fused_ops": {"list": {"s": ["Qmlhc0FkZA==", "UmVsdQ=="]}}, "T": {"type": "DT_FLOAT"}, "padding": {"s": "VkFMSUQ="}, "data_format": {"s": "TkhXQw=="}, "explicit_paddings": {"list": {}}, "dilations": {"list": {"i": ["1", "1", "1", "1"]}}, "epsilon": {"f": 0.0}, "num_args": {"i": "1"}, "strides": {"list": {"i": ["1", "1", "1", "1"]}}, "use_cudnn_on_gpu": {"b": true}}}, {"name": "StatefulPartitionedCall/model/conv2_block1_3_conv/BiasAdd", "op": "_FusedConv2D", "input": ["StatefulPartitionedCall/model/conv2_block1_2_relu/Relu", "StatefulPartitionedCall/model/conv2_block1_3_conv/Conv2D/ReadVariableOp", "StatefulPartitionedCall/model/conv2_block1_3_conv/BiasAdd/ReadVariableOp"], "device": "/device:CPU:0", "attr": {"dilations": {"list": {"i": ["1", "1", "1", "1"]}}, "explicit_paddings": {"list": {}}, "epsilon": {"f": 0.0}, "padding": {"s": "VkFMSUQ="}, "data_format": {"s": "TkhXQw=="}, "strides": {"list": {"i": ["1", "1", "1", "1"]}}, "T": {"type": "DT_FLOAT"}, "use_cudnn_on_gpu": {"b": true}, "fused_ops": {"list": {"s": ["Qmlhc0FkZA=="]}}, "num_args": {"i": "1"}}}, {"name": "StatefulPartitionedCall/model/conv2_block1_out/add", "op": "AddV2", "input": ["StatefulPartitionedCall/model/conv2_block1_0_conv/BiasAdd", "StatefulPartitionedCall/model/conv2_block1_3_conv/BiasAdd"], "attr": {"T": {"type": "DT_FLOAT"}}}, {"name": "StatefulPartitionedCall/model/conv2_block2_preact_bn/FusedBatchNormV3/Mul", "op": "Mul", "input": ["StatefulPartitionedCall/model/conv2_block1_out/add", "StatefulPartitionedCall/model/conv2_block2_preact_bn/FusedBatchNormV3/Scaled"], "attr": {"T": {"type": "DT_FLOAT"}}}, {"name": "StatefulPartitionedCall/model/conv2_block2_preact_bn/FusedBatchNormV3", "op": "Add", "input": ["StatefulPartitionedCall/model/conv2_block2_preact_bn/FusedBatchNormV3/Mul", "StatefulPartitionedCall/model/conv2_block2_preact_bn/FusedBatchNormV3/Offset"], "attr": {"T": {"type": "DT_FLOAT"}}}, {"name": "StatefulPartitionedCall/model/conv2_block2_preact_relu/Relu", "op": "Relu", "input": ["StatefulPartitionedCall/model/conv2_block2_preact_bn/FusedBatchNormV3"], "attr": {"T": {"type": "DT_FLOAT"}}}, {"name": "StatefulPartitionedCall/model/conv2_block2_1_relu/Relu", "op": "_FusedConv2D", "input": ["StatefulPartitionedCall/model/conv2_block2_preact_relu/Relu", "StatefulPartitionedCall/model/conv2_block2_1_conv/Conv2D_weights", "StatefulPartitionedCall/model/conv2_block2_1_conv/Conv2D_bn_offset"], "device": "/device:CPU:0", "attr": {"strides": {"list": {"i": ["1", "1", "1", "1"]}}, "dilations": {"list": {"i": ["1", "1", "1", "1"]}}, "T": {"type": "DT_FLOAT"}, "num_args": {"i": "1"}, "epsilon": {"f": 0.0}, "use_cudnn_on_gpu": {"b": true}, "fused_ops": {"list": {"s": ["Qmlhc0FkZA==", "UmVsdQ=="]}}, "padding": {"s": "VkFMSUQ="}, "data_format": {"s": "TkhXQw=="}, "explicit_paddings": {"list": {}}}}, {"name": "StatefulPartitionedCall/model/conv2_block2_2_pad/Pad", "op": "Pad", "input": ["StatefulPartitionedCall/model/conv2_block2_1_relu/Relu", "StatefulPartitionedCall/model/conv2_block2_2_pad/Pad/paddings"], "attr": {"Tpaddings": {"type": "DT_INT32"}, "T": {"type": "DT_FLOAT"}}}, {"name": "StatefulPartitionedCall/model/conv2_block2_2_relu/Relu", "op": "_FusedConv2D", "input": ["StatefulPartitionedCall/model/conv2_block2_2_pad/Pad", "StatefulPartitionedCall/model/conv2_block2_2_conv/Conv2D_weights", "StatefulPartitionedCall/model/conv2_block2_2_conv/Conv2D_bn_offset"], "device": "/device:CPU:0", "attr": {"padding": {"s": "VkFMSUQ="}, "T": {"type": "DT_FLOAT"}, "explicit_paddings": {"list": {}}, "use_cudnn_on_gpu": {"b": true}, "dilations": {"list": {"i": ["1", "1", "1", "1"]}}, "fused_ops": {"list": {"s": ["Qmlhc0FkZA==", "UmVsdQ=="]}}, "strides": {"list": {"i": ["1", "1", "1", "1"]}}, "data_format": {"s": "TkhXQw=="}, "epsilon": {"f": 0.0}, "num_args": {"i": "1"}}}, {"name": "StatefulPartitionedCall/model/conv2_block2_3_conv/BiasAdd", "op": "_FusedConv2D", "input": ["StatefulPartitionedCall/model/conv2_block2_2_relu/Relu", "StatefulPartitionedCall/model/conv2_block2_3_conv/Conv2D/ReadVariableOp", "StatefulPartitionedCall/model/conv2_block2_3_conv/BiasAdd/ReadVariableOp"], "device": "/device:CPU:0", "attr": {"T": {"type": "DT_FLOAT"}, "strides": {"list": {"i": ["1", "1", "1", "1"]}}, "padding": {"s": "VkFMSUQ="}, "data_format": {"s": "TkhXQw=="}, "dilations": {"list": {"i": ["1", "1", "1", "1"]}}, "fused_ops": {"list": {"s": ["Qmlhc0FkZA=="]}}, "use_cudnn_on_gpu": {"b": true}, "explicit_paddings": {"list": {}}, "epsilon": {"f": 0.0}, "num_args": {"i": "1"}}}, {"name": "StatefulPartitionedCall/model/conv2_block2_out/add", "op": "AddV2", "input": ["StatefulPartitionedCall/model/conv2_block1_out/add", "StatefulPartitionedCall/model/conv2_block2_3_conv/BiasAdd"], "attr": {"T": {"type": "DT_FLOAT"}}}, {"name": "StatefulPartitionedCall/model/max_pooling2d/MaxPool", "op": "MaxPool", "input": ["StatefulPartitionedCall/model/conv2_block2_out/add"], "attr": {"explicit_paddings": {"list": {}}, "ksize": {"list": {"i": ["1", "1", "1", "1"]}}, "padding": {"s": "VkFMSUQ="}, "strides": {"list": {"i": ["1", "2", "2", "1"]}}, "data_format": {"s": "TkhXQw=="}, "T": {"type": "DT_FLOAT"}}}, {"name": "StatefulPartitionedCall/model/conv2_block3_preact_bn/FusedBatchNormV3/Mul", "op": "Mul", "input": ["StatefulPartitionedCall/model/conv2_block2_out/add", "StatefulPartitionedCall/model/conv2_block3_preact_bn/FusedBatchNormV3/Scaled"], "attr": {"T": {"type": "DT_FLOAT"}}}, {"name": "StatefulPartitionedCall/model/conv2_block3_preact_bn/FusedBatchNormV3", "op": "Add", "input": ["StatefulPartitionedCall/model/conv2_block3_preact_bn/FusedBatchNormV3/Mul", "StatefulPartitionedCall/model/conv2_block3_preact_bn/FusedBatchNormV3/Offset"], "attr": {"T": {"type": "DT_FLOAT"}}}, {"name": "StatefulPartitionedCall/model/conv2_block3_preact_relu/Relu", "op": "Relu", "input": ["StatefulPartitionedCall/model/conv2_block3_preact_bn/FusedBatchNormV3"], "attr": {"T": {"type": "DT_FLOAT"}}}, {"name": "StatefulPartitionedCall/model/conv2_block3_1_relu/Relu", "op": "_FusedConv2D", "input": ["StatefulPartitionedCall/model/conv2_block3_preact_relu/Relu", "StatefulPartitionedCall/model/conv2_block3_1_conv/Conv2D_weights", "StatefulPartitionedCall/model/conv2_block3_1_conv/Conv2D_bn_offset"], "device": "/device:CPU:0", "attr": {"explicit_paddings": {"list": {}}, "dilations": {"list": {"i": ["1", "1", "1", "1"]}}, "data_format": {"s": "TkhXQw=="}, "use_cudnn_on_gpu": {"b": true}, "num_args": {"i": "1"}, "strides": {"list": {"i": ["1", "1", "1", "1"]}}, "T": {"type": "DT_FLOAT"}, "epsilon": {"f": 0.0}, "fused_ops": {"list": {"s": ["Qmlhc0FkZA==", "UmVsdQ=="]}}, "padding": {"s": "VkFMSUQ="}}}, {"name": "StatefulPartitionedCall/model/conv2_block3_2_pad/Pad", "op": "Pad", "input": ["StatefulPartitionedCall/model/conv2_block3_1_relu/Relu", "StatefulPartitionedCall/model/conv2_block3_2_pad/Pad/paddings"], "attr": {"T": {"type": "DT_FLOAT"}, "Tpaddings": {"type": "DT_INT32"}}}, {"name": "StatefulPartitionedCall/model/conv2_block3_2_relu/Relu", "op": "_FusedConv2D", "input": ["StatefulPartitionedCall/model/conv2_block3_2_pad/Pad", "StatefulPartitionedCall/model/conv2_block3_2_conv/Conv2D_weights", "StatefulPartitionedCall/model/conv2_block3_2_conv/Conv2D_bn_offset"], "device": "/device:CPU:0", "attr": {"dilations": {"list": {"i": ["1", "1", "1", "1"]}}, "data_format": {"s": "TkhXQw=="}, "fused_ops": {"list": {"s": ["Qmlhc0FkZA==", "UmVsdQ=="]}}, "epsilon": {"f": 0.0}, "use_cudnn_on_gpu": {"b": true}, "explicit_paddings": {"list": {}}, "padding": {"s": "VkFMSUQ="}, "strides": {"list": {"i": ["1", "2", "2", "1"]}}, "num_args": {"i": "1"}, "T": {"type": "DT_FLOAT"}}}, {"name": "StatefulPartitionedCall/model/conv2_block3_3_conv/BiasAdd", "op": "_FusedConv2D", "input": ["StatefulPartitionedCall/model/conv2_block3_2_relu/Relu", "StatefulPartitionedCall/model/conv2_block3_3_conv/Conv2D/ReadVariableOp", "StatefulPartitionedCall/model/conv2_block3_3_conv/BiasAdd/ReadVariableOp"], "device": "/device:CPU:0", "attr": {"num_args": {"i": "1"}, "epsilon": {"f": 0.0}, "fused_ops": {"list": {"s": ["Qmlhc0FkZA=="]}}, "use_cudnn_on_gpu": {"b": true}, "dilations": {"list": {"i": ["1", "1", "1", "1"]}}, "data_format": {"s": "TkhXQw=="}, "explicit_paddings": {"list": {}}, "T": {"type": "DT_FLOAT"}, "strides": {"list": {"i": ["1", "1", "1", "1"]}}, "padding": {"s": "VkFMSUQ="}}}, {"name": "StatefulPartitionedCall/model/conv2_block3_out/add", "op": "AddV2", "input": ["StatefulPartitionedCall/model/max_pooling2d/MaxPool", "StatefulPartitionedCall/model/conv2_block3_3_conv/BiasAdd"], "attr": {"T": {"type": "DT_FLOAT"}}}, {"name": "StatefulPartitionedCall/model/conv3_block1_preact_bn/FusedBatchNormV3/Mul", "op": "Mul", "input": ["StatefulPartitionedCall/model/conv2_block3_out/add", "StatefulPartitionedCall/model/conv3_block1_preact_bn/FusedBatchNormV3/Scaled"], "attr": {"T": {"type": "DT_FLOAT"}}}, {"name": "StatefulPartitionedCall/model/conv3_block1_preact_bn/FusedBatchNormV3", "op": "Add", "input": ["StatefulPartitionedCall/model/conv3_block1_preact_bn/FusedBatchNormV3/Mul", "StatefulPartitionedCall/model/conv3_block1_preact_bn/FusedBatchNormV3/Offset"], "attr": {"T": {"type": "DT_FLOAT"}}}, {"name": "StatefulPartitionedCall/model/conv3_block1_preact_relu/Relu", "op": "Relu", "input": ["StatefulPartitionedCall/model/conv3_block1_preact_bn/FusedBatchNormV3"], "attr": {"T": {"type": "DT_FLOAT"}}}, {"name": "StatefulPartitionedCall/model/conv3_block1_0_conv/BiasAdd", "op": "_FusedConv2D", "input": ["StatefulPartitionedCall/model/conv3_block1_preact_relu/Relu", "StatefulPartitionedCall/model/conv3_block1_0_conv/Conv2D/ReadVariableOp", "StatefulPartitionedCall/model/conv3_block1_0_conv/BiasAdd/ReadVariableOp"], "device": "/device:CPU:0", "attr": {"num_args": {"i": "1"}, "dilations": {"list": {"i": ["1", "1", "1", "1"]}}, "use_cudnn_on_gpu": {"b": true}, "fused_ops": {"list": {"s": ["Qmlhc0FkZA=="]}}, "data_format": {"s": "TkhXQw=="}, "padding": {"s": "VkFMSUQ="}, "explicit_paddings": {"list": {}}, "strides": {"list": {"i": ["1", "1", "1", "1"]}}, "epsilon": {"f": 0.0}, "T": {"type": "DT_FLOAT"}}}, {"name": "StatefulPartitionedCall/model/conv3_block1_1_relu/Relu", "op": "_FusedConv2D", "input": ["StatefulPartitionedCall/model/conv3_block1_preact_relu/Relu", "StatefulPartitionedCall/model/conv3_block1_1_conv/Conv2D_weights", "StatefulPartitionedCall/model/conv3_block1_1_conv/Conv2D_bn_offset"], "device": "/device:CPU:0", "attr": {"data_format": {"s": "TkhXQw=="}, "fused_ops": {"list": {"s": ["Qmlhc0FkZA==", "UmVsdQ=="]}}, "T": {"type": "DT_FLOAT"}, "explicit_paddings": {"list": {}}, "dilations": {"list": {"i": ["1", "1", "1", "1"]}}, "num_args": {"i": "1"}, "padding": {"s": "VkFMSUQ="}, "strides": {"list": {"i": ["1", "1", "1", "1"]}}, "use_cudnn_on_gpu": {"b": true}, "epsilon": {"f": 0.0}}}, {"name": "StatefulPartitionedCall/model/conv3_block1_2_pad/Pad", "op": "Pad", "input": ["StatefulPartitionedCall/model/conv3_block1_1_relu/Relu", "StatefulPartitionedCall/model/conv3_block1_2_pad/Pad/paddings"], "attr": {"T": {"type": "DT_FLOAT"}, "Tpaddings": {"type": "DT_INT32"}}}, {"name": "StatefulPartitionedCall/model/conv3_block1_2_relu/Relu", "op": "_FusedConv2D", "input": ["StatefulPartitionedCall/model/conv3_block1_2_pad/Pad", "StatefulPartitionedCall/model/conv3_block1_2_conv/Conv2D_weights", "StatefulPartitionedCall/model/conv3_block1_2_conv/Conv2D_bn_offset"], "device": "/device:CPU:0", "attr": {"strides": {"list": {"i": ["1", "1", "1", "1"]}}, "num_args": {"i": "1"}, "data_format": {"s": "TkhXQw=="}, "explicit_paddings": {"list": {}}, "padding": {"s": "VkFMSUQ="}, "T": {"type": "DT_FLOAT"}, "dilations": {"list": {"i": ["1", "1", "1", "1"]}}, "epsilon": {"f": 0.0}, "use_cudnn_on_gpu": {"b": true}, "fused_ops": {"list": {"s": ["Qmlhc0FkZA==", "UmVsdQ=="]}}}}, {"name": "StatefulPartitionedCall/model/conv3_block1_3_conv/BiasAdd", "op": "_FusedConv2D", "input": ["StatefulPartitionedCall/model/conv3_block1_2_relu/Relu", "StatefulPartitionedCall/model/conv3_block1_3_conv/Conv2D/ReadVariableOp", "StatefulPartitionedCall/model/conv3_block1_3_conv/BiasAdd/ReadVariableOp"], "device": "/device:CPU:0", "attr": {"data_format": {"s": "TkhXQw=="}, "padding": {"s": "VkFMSUQ="}, "explicit_paddings": {"list": {}}, "num_args": {"i": "1"}, "use_cudnn_on_gpu": {"b": true}, "T": {"type": "DT_FLOAT"}, "epsilon": {"f": 0.0}, "dilations": {"list": {"i": ["1", "1", "1", "1"]}}, "strides": {"list": {"i": ["1", "1", "1", "1"]}}, "fused_ops": {"list": {"s": ["Qmlhc0FkZA=="]}}}}, {"name": "StatefulPartitionedCall/model/conv3_block1_out/add", "op": "AddV2", "input": ["StatefulPartitionedCall/model/conv3_block1_0_conv/BiasAdd", "StatefulPartitionedCall/model/conv3_block1_3_conv/BiasAdd"], "attr": {"T": {"type": "DT_FLOAT"}}}, {"name": "StatefulPartitionedCall/model/conv3_block2_preact_bn/FusedBatchNormV3/Mul", "op": "Mul", "input": ["StatefulPartitionedCall/model/conv3_block1_out/add", "StatefulPartitionedCall/model/conv3_block2_preact_bn/FusedBatchNormV3/Scaled"], "attr": {"T": {"type": "DT_FLOAT"}}}, {"name": "StatefulPartitionedCall/model/conv3_block2_preact_bn/FusedBatchNormV3", "op": "Add", "input": ["StatefulPartitionedCall/model/conv3_block2_preact_bn/FusedBatchNormV3/Mul", "StatefulPartitionedCall/model/conv3_block2_preact_bn/FusedBatchNormV3/Offset"], "attr": {"T": {"type": "DT_FLOAT"}}}, {"name": "StatefulPartitionedCall/model/conv3_block2_preact_relu/Relu", "op": "Relu", "input": ["StatefulPartitionedCall/model/conv3_block2_preact_bn/FusedBatchNormV3"], "attr": {"T": {"type": "DT_FLOAT"}}}, {"name": "StatefulPartitionedCall/model/conv3_block2_1_relu/Relu", "op": "_FusedConv2D", "input": ["StatefulPartitionedCall/model/conv3_block2_preact_relu/Relu", "StatefulPartitionedCall/model/conv3_block2_1_conv/Conv2D_weights", "StatefulPartitionedCall/model/conv3_block2_1_conv/Conv2D_bn_offset"], "device": "/device:CPU:0", "attr": {"use_cudnn_on_gpu": {"b": true}, "data_format": {"s": "TkhXQw=="}, "epsilon": {"f": 0.0}, "strides": {"list": {"i": ["1", "1", "1", "1"]}}, "fused_ops": {"list": {"s": ["Qmlhc0FkZA==", "UmVsdQ=="]}}, "T": {"type": "DT_FLOAT"}, "dilations": {"list": {"i": ["1", "1", "1", "1"]}}, "padding": {"s": "VkFMSUQ="}, "num_args": {"i": "1"}, "explicit_paddings": {"list": {}}}}, {"name": "StatefulPartitionedCall/model/conv3_block2_2_pad/Pad", "op": "Pad", "input": ["StatefulPartitionedCall/model/conv3_block2_1_relu/Relu", "StatefulPartitionedCall/model/conv3_block2_2_pad/Pad/paddings"], "attr": {"Tpaddings": {"type": "DT_INT32"}, "T": {"type": "DT_FLOAT"}}}, {"name": "StatefulPartitionedCall/model/conv3_block2_2_relu/Relu", "op": "_FusedConv2D", "input": ["StatefulPartitionedCall/model/conv3_block2_2_pad/Pad", "StatefulPartitionedCall/model/conv3_block2_2_conv/Conv2D_weights", "StatefulPartitionedCall/model/conv3_block2_2_conv/Conv2D_bn_offset"], "device": "/device:CPU:0", "attr": {"num_args": {"i": "1"}, "padding": {"s": "VkFMSUQ="}, "strides": {"list": {"i": ["1", "1", "1", "1"]}}, "fused_ops": {"list": {"s": ["Qmlhc0FkZA==", "UmVsdQ=="]}}, "epsilon": {"f": 0.0}, "dilations": {"list": {"i": ["1", "1", "1", "1"]}}, "data_format": {"s": "TkhXQw=="}, "T": {"type": "DT_FLOAT"}, "explicit_paddings": {"list": {}}, "use_cudnn_on_gpu": {"b": true}}}, {"name": "StatefulPartitionedCall/model/conv3_block2_3_conv/BiasAdd", "op": "_FusedConv2D", "input": ["StatefulPartitionedCall/model/conv3_block2_2_relu/Relu", "StatefulPartitionedCall/model/conv3_block2_3_conv/Conv2D/ReadVariableOp", "StatefulPartitionedCall/model/conv3_block2_3_conv/BiasAdd/ReadVariableOp"], "device": "/device:CPU:0", "attr": {"epsilon": {"f": 0.0}, "padding": {"s": "VkFMSUQ="}, "dilations": {"list": {"i": ["1", "1", "1", "1"]}}, "num_args": {"i": "1"}, "use_cudnn_on_gpu": {"b": true}, "explicit_paddings": {"list": {}}, "data_format": {"s": "TkhXQw=="}, "T": {"type": "DT_FLOAT"}, "strides": {"list": {"i": ["1", "1", "1", "1"]}}, "fused_ops": {"list": {"s": ["Qmlhc0FkZA=="]}}}}, {"name": "StatefulPartitionedCall/model/conv3_block2_out/add", "op": "AddV2", "input": ["StatefulPartitionedCall/model/conv3_block1_out/add", "StatefulPartitionedCall/model/conv3_block2_3_conv/BiasAdd"], "attr": {"T": {"type": "DT_FLOAT"}}}, {"name": "StatefulPartitionedCall/model/conv3_block3_preact_bn/FusedBatchNormV3/Mul", "op": "Mul", "input": ["StatefulPartitionedCall/model/conv3_block2_out/add", "StatefulPartitionedCall/model/conv3_block3_preact_bn/FusedBatchNormV3/Scaled"], "attr": {"T": {"type": "DT_FLOAT"}}}, {"name": "StatefulPartitionedCall/model/conv3_block3_preact_bn/FusedBatchNormV3", "op": "Add", "input": ["StatefulPartitionedCall/model/conv3_block3_preact_bn/FusedBatchNormV3/Mul", "StatefulPartitionedCall/model/conv3_block3_preact_bn/FusedBatchNormV3/Offset"], "attr": {"T": {"type": "DT_FLOAT"}}}, {"name": "StatefulPartitionedCall/model/conv3_block3_preact_relu/Relu", "op": "Relu", "input": ["StatefulPartitionedCall/model/conv3_block3_preact_bn/FusedBatchNormV3"], "attr": {"T": {"type": "DT_FLOAT"}}}, {"name": "StatefulPartitionedCall/model/conv3_block3_1_relu/Relu", "op": "_FusedConv2D", "input": ["StatefulPartitionedCall/model/conv3_block3_preact_relu/Relu", "StatefulPartitionedCall/model/conv3_block3_1_conv/Conv2D_weights", "StatefulPartitionedCall/model/conv3_block3_1_conv/Conv2D_bn_offset"], "device": "/device:CPU:0", "attr": {"padding": {"s": "VkFMSUQ="}, "T": {"type": "DT_FLOAT"}, "num_args": {"i": "1"}, "dilations": {"list": {"i": ["1", "1", "1", "1"]}}, "use_cudnn_on_gpu": {"b": true}, "explicit_paddings": {"list": {}}, "data_format": {"s": "TkhXQw=="}, "fused_ops": {"list": {"s": ["Qmlhc0FkZA==", "UmVsdQ=="]}}, "strides": {"list": {"i": ["1", "1", "1", "1"]}}, "epsilon": {"f": 0.0}}}, {"name": "StatefulPartitionedCall/model/conv3_block3_2_pad/Pad", "op": "Pad", "input": ["StatefulPartitionedCall/model/conv3_block3_1_relu/Relu", "StatefulPartitionedCall/model/conv3_block3_2_pad/Pad/paddings"], "attr": {"T": {"type": "DT_FLOAT"}, "Tpaddings": {"type": "DT_INT32"}}}, {"name": "StatefulPartitionedCall/model/conv3_block3_2_relu/Relu", "op": "_FusedConv2D", "input": ["StatefulPartitionedCall/model/conv3_block3_2_pad/Pad", "StatefulPartitionedCall/model/conv3_block3_2_conv/Conv2D_weights", "StatefulPartitionedCall/model/conv3_block3_2_conv/Conv2D_bn_offset"], "device": "/device:CPU:0", "attr": {"data_format": {"s": "TkhXQw=="}, "explicit_paddings": {"list": {}}, "T": {"type": "DT_FLOAT"}, "padding": {"s": "VkFMSUQ="}, "dilations": {"list": {"i": ["1", "1", "1", "1"]}}, "use_cudnn_on_gpu": {"b": true}, "fused_ops": {"list": {"s": ["Qmlhc0FkZA==", "UmVsdQ=="]}}, "strides": {"list": {"i": ["1", "1", "1", "1"]}}, "num_args": {"i": "1"}, "epsilon": {"f": 0.0}}}, {"name": "StatefulPartitionedCall/model/conv3_block3_3_conv/BiasAdd", "op": "_FusedConv2D", "input": ["StatefulPartitionedCall/model/conv3_block3_2_relu/Relu", "StatefulPartitionedCall/model/conv3_block3_3_conv/Conv2D/ReadVariableOp", "StatefulPartitionedCall/model/conv3_block3_3_conv/BiasAdd/ReadVariableOp"], "device": "/device:CPU:0", "attr": {"use_cudnn_on_gpu": {"b": true}, "num_args": {"i": "1"}, "fused_ops": {"list": {"s": ["Qmlhc0FkZA=="]}}, "dilations": {"list": {"i": ["1", "1", "1", "1"]}}, "T": {"type": "DT_FLOAT"}, "epsilon": {"f": 0.0}, "data_format": {"s": "TkhXQw=="}, "padding": {"s": "VkFMSUQ="}, "strides": {"list": {"i": ["1", "1", "1", "1"]}}, "explicit_paddings": {"list": {}}}}, {"name": "StatefulPartitionedCall/model/conv3_block3_out/add", "op": "AddV2", "input": ["StatefulPartitionedCall/model/conv3_block2_out/add", "StatefulPartitionedCall/model/conv3_block3_3_conv/BiasAdd"], "attr": {"T": {"type": "DT_FLOAT"}}}, {"name": "StatefulPartitionedCall/model/conv3_block4_preact_bn/FusedBatchNormV3/Mul", "op": "Mul", "input": ["StatefulPartitionedCall/model/conv3_block3_out/add", "StatefulPartitionedCall/model/conv3_block4_preact_bn/FusedBatchNormV3/Scaled"], "attr": {"T": {"type": "DT_FLOAT"}}}, {"name": "StatefulPartitionedCall/model/conv3_block4_preact_bn/FusedBatchNormV3", "op": "Add", "input": ["StatefulPartitionedCall/model/conv3_block4_preact_bn/FusedBatchNormV3/Mul", "StatefulPartitionedCall/model/conv3_block4_preact_bn/FusedBatchNormV3/Offset"], "attr": {"T": {"type": "DT_FLOAT"}}}, {"name": "StatefulPartitionedCall/model/conv3_block4_preact_relu/Relu", "op": "Relu", "input": ["StatefulPartitionedCall/model/conv3_block4_preact_bn/FusedBatchNormV3"], "attr": {"T": {"type": "DT_FLOAT"}}}, {"name": "StatefulPartitionedCall/model/conv3_block4_1_relu/Relu", "op": "_FusedConv2D", "input": ["StatefulPartitionedCall/model/conv3_block4_preact_relu/Relu", "StatefulPartitionedCall/model/conv3_block4_1_conv/Conv2D_weights", "StatefulPartitionedCall/model/conv3_block4_1_conv/Conv2D_bn_offset"], "device": "/device:CPU:0", "attr": {"use_cudnn_on_gpu": {"b": true}, "num_args": {"i": "1"}, "fused_ops": {"list": {"s": ["Qmlhc0FkZA==", "UmVsdQ=="]}}, "dilations": {"list": {"i": ["1", "1", "1", "1"]}}, "explicit_paddings": {"list": {}}, "padding": {"s": "VkFMSUQ="}, "T": {"type": "DT_FLOAT"}, "data_format": {"s": "TkhXQw=="}, "strides": {"list": {"i": ["1", "1", "1", "1"]}}, "epsilon": {"f": 0.0}}}, {"name": "StatefulPartitionedCall/model/conv3_block4_2_pad/Pad", "op": "Pad", "input": ["StatefulPartitionedCall/model/conv3_block4_1_relu/Relu", "StatefulPartitionedCall/model/conv3_block4_2_pad/Pad/paddings"], "attr": {"Tpaddings": {"type": "DT_INT32"}, "T": {"type": "DT_FLOAT"}}}, {"name": "StatefulPartitionedCall/model/conv3_block4_2_relu/Relu", "op": "_FusedConv2D", "input": ["StatefulPartitionedCall/model/conv3_block4_2_pad/Pad", "StatefulPartitionedCall/model/conv3_block4_2_conv/Conv2D_weights", "StatefulPartitionedCall/model/conv3_block4_2_conv/Conv2D_bn_offset"], "device": "/device:CPU:0", "attr": {"dilations": {"list": {"i": ["1", "1", "1", "1"]}}, "use_cudnn_on_gpu": {"b": true}, "strides": {"list": {"i": ["1", "1", "1", "1"]}}, "epsilon": {"f": 0.0}, "fused_ops": {"list": {"s": ["Qmlhc0FkZA==", "UmVsdQ=="]}}, "data_format": {"s": "TkhXQw=="}, "explicit_paddings": {"list": {}}, "T": {"type": "DT_FLOAT"}, "padding": {"s": "VkFMSUQ="}, "num_args": {"i": "1"}}}, {"name": "StatefulPartitionedCall/model/conv3_block4_3_conv/BiasAdd", "op": "_FusedConv2D", "input": ["StatefulPartitionedCall/model/conv3_block4_2_relu/Relu", "StatefulPartitionedCall/model/conv3_block4_3_conv/Conv2D/ReadVariableOp", "StatefulPartitionedCall/model/conv3_block4_3_conv/BiasAdd/ReadVariableOp"], "device": "/device:CPU:0", "attr": {"strides": {"list": {"i": ["1", "1", "1", "1"]}}, "num_args": {"i": "1"}, "epsilon": {"f": 0.0}, "use_cudnn_on_gpu": {"b": true}, "fused_ops": {"list": {"s": ["Qmlhc0FkZA=="]}}, "explicit_paddings": {"list": {}}, "padding": {"s": "VkFMSUQ="}, "T": {"type": "DT_FLOAT"}, "data_format": {"s": "TkhXQw=="}, "dilations": {"list": {"i": ["1", "1", "1", "1"]}}}}, {"name": "StatefulPartitionedCall/model/conv3_block4_out/add", "op": "AddV2", "input": ["StatefulPartitionedCall/model/conv3_block3_out/add", "StatefulPartitionedCall/model/conv3_block4_3_conv/BiasAdd"], "attr": {"T": {"type": "DT_FLOAT"}}}, {"name": "StatefulPartitionedCall/model/conv3_block5_preact_bn/FusedBatchNormV3/Mul", "op": "Mul", "input": ["StatefulPartitionedCall/model/conv3_block4_out/add", "StatefulPartitionedCall/model/conv3_block5_preact_bn/FusedBatchNormV3/Scaled"], "attr": {"T": {"type": "DT_FLOAT"}}}, {"name": "StatefulPartitionedCall/model/conv3_block5_preact_bn/FusedBatchNormV3", "op": "Add", "input": ["StatefulPartitionedCall/model/conv3_block5_preact_bn/FusedBatchNormV3/Mul", "StatefulPartitionedCall/model/conv3_block5_preact_bn/FusedBatchNormV3/Offset"], "attr": {"T": {"type": "DT_FLOAT"}}}, {"name": "StatefulPartitionedCall/model/conv3_block5_preact_relu/Relu", "op": "Relu", "input": ["StatefulPartitionedCall/model/conv3_block5_preact_bn/FusedBatchNormV3"], "attr": {"T": {"type": "DT_FLOAT"}}}, {"name": "StatefulPartitionedCall/model/conv3_block5_1_relu/Relu", "op": "_FusedConv2D", "input": ["StatefulPartitionedCall/model/conv3_block5_preact_relu/Relu", "StatefulPartitionedCall/model/conv3_block5_1_conv/Conv2D_weights", "StatefulPartitionedCall/model/conv3_block5_1_conv/Conv2D_bn_offset"], "device": "/device:CPU:0", "attr": {"T": {"type": "DT_FLOAT"}, "padding": {"s": "VkFMSUQ="}, "epsilon": {"f": 0.0}, "fused_ops": {"list": {"s": ["Qmlhc0FkZA==", "UmVsdQ=="]}}, "data_format": {"s": "TkhXQw=="}, "use_cudnn_on_gpu": {"b": true}, "strides": {"list": {"i": ["1", "1", "1", "1"]}}, "num_args": {"i": "1"}, "dilations": {"list": {"i": ["1", "1", "1", "1"]}}, "explicit_paddings": {"list": {}}}}, {"name": "StatefulPartitionedCall/model/conv3_block5_2_pad/Pad", "op": "Pad", "input": ["StatefulPartitionedCall/model/conv3_block5_1_relu/Relu", "StatefulPartitionedCall/model/conv3_block5_2_pad/Pad/paddings"], "attr": {"Tpaddings": {"type": "DT_INT32"}, "T": {"type": "DT_FLOAT"}}}, {"name": "StatefulPartitionedCall/model/conv3_block5_2_relu/Relu", "op": "_FusedConv2D", "input": ["StatefulPartitionedCall/model/conv3_block5_2_pad/Pad", "StatefulPartitionedCall/model/conv3_block5_2_conv/Conv2D_weights", "StatefulPartitionedCall/model/conv3_block5_2_conv/Conv2D_bn_offset"], "device": "/device:CPU:0", "attr": {"fused_ops": {"list": {"s": ["Qmlhc0FkZA==", "UmVsdQ=="]}}, "data_format": {"s": "TkhXQw=="}, "padding": {"s": "VkFMSUQ="}, "strides": {"list": {"i": ["1", "1", "1", "1"]}}, "epsilon": {"f": 0.0}, "dilations": {"list": {"i": ["1", "1", "1", "1"]}}, "explicit_paddings": {"list": {}}, "num_args": {"i": "1"}, "T": {"type": "DT_FLOAT"}, "use_cudnn_on_gpu": {"b": true}}}, {"name": "StatefulPartitionedCall/model/conv3_block5_3_conv/BiasAdd", "op": "_FusedConv2D", "input": ["StatefulPartitionedCall/model/conv3_block5_2_relu/Relu", "StatefulPartitionedCall/model/conv3_block5_3_conv/Conv2D/ReadVariableOp", "StatefulPartitionedCall/model/conv3_block5_3_conv/BiasAdd/ReadVariableOp"], "device": "/device:CPU:0", "attr": {"use_cudnn_on_gpu": {"b": true}, "dilations": {"list": {"i": ["1", "1", "1", "1"]}}, "strides": {"list": {"i": ["1", "1", "1", "1"]}}, "explicit_paddings": {"list": {}}, "data_format": {"s": "TkhXQw=="}, "padding": {"s": "VkFMSUQ="}, "num_args": {"i": "1"}, "epsilon": {"f": 0.0}, "fused_ops": {"list": {"s": ["Qmlhc0FkZA=="]}}, "T": {"type": "DT_FLOAT"}}}, {"name": "StatefulPartitionedCall/model/conv3_block5_out/add", "op": "AddV2", "input": ["StatefulPartitionedCall/model/conv3_block4_out/add", "StatefulPartitionedCall/model/conv3_block5_3_conv/BiasAdd"], "attr": {"T": {"type": "DT_FLOAT"}}}, {"name": "StatefulPartitionedCall/model/conv3_block6_preact_bn/FusedBatchNormV3/Mul", "op": "Mul", "input": ["StatefulPartitionedCall/model/conv3_block5_out/add", "StatefulPartitionedCall/model/conv3_block6_preact_bn/FusedBatchNormV3/Scaled"], "attr": {"T": {"type": "DT_FLOAT"}}}, {"name": "StatefulPartitionedCall/model/conv3_block6_preact_bn/FusedBatchNormV3", "op": "Add", "input": ["StatefulPartitionedCall/model/conv3_block6_preact_bn/FusedBatchNormV3/Mul", "StatefulPartitionedCall/model/conv3_block6_preact_bn/FusedBatchNormV3/Offset"], "attr": {"T": {"type": "DT_FLOAT"}}}, {"name": "StatefulPartitionedCall/model/conv3_block6_preact_relu/Relu", "op": "Relu", "input": ["StatefulPartitionedCall/model/conv3_block6_preact_bn/FusedBatchNormV3"], "attr": {"T": {"type": "DT_FLOAT"}}}, {"name": "StatefulPartitionedCall/model/conv3_block6_1_relu/Relu", "op": "_FusedConv2D", "input": ["StatefulPartitionedCall/model/conv3_block6_preact_relu/Relu", "StatefulPartitionedCall/model/conv3_block6_1_conv/Conv2D_weights", "StatefulPartitionedCall/model/conv3_block6_1_conv/Conv2D_bn_offset"], "device": "/device:CPU:0", "attr": {"explicit_paddings": {"list": {}}, "use_cudnn_on_gpu": {"b": true}, "dilations": {"list": {"i": ["1", "1", "1", "1"]}}, "num_args": {"i": "1"}, "T": {"type": "DT_FLOAT"}, "data_format": {"s": "TkhXQw=="}, "epsilon": {"f": 0.0}, "padding": {"s": "VkFMSUQ="}, "strides": {"list": {"i": ["1", "1", "1", "1"]}}, "fused_ops": {"list": {"s": ["Qmlhc0FkZA==", "UmVsdQ=="]}}}}, {"name": "StatefulPartitionedCall/model/conv3_block6_2_pad/Pad", "op": "Pad", "input": ["StatefulPartitionedCall/model/conv3_block6_1_relu/Relu", "StatefulPartitionedCall/model/conv3_block6_2_pad/Pad/paddings"], "attr": {"T": {"type": "DT_FLOAT"}, "Tpaddings": {"type": "DT_INT32"}}}, {"name": "StatefulPartitionedCall/model/conv3_block6_2_relu/Relu", "op": "_FusedConv2D", "input": ["StatefulPartitionedCall/model/conv3_block6_2_pad/Pad", "StatefulPartitionedCall/model/conv3_block6_2_conv/Conv2D_weights", "StatefulPartitionedCall/model/conv3_block6_2_conv/Conv2D_bn_offset"], "device": "/device:CPU:0", "attr": {"data_format": {"s": "TkhXQw=="}, "T": {"type": "DT_FLOAT"}, "use_cudnn_on_gpu": {"b": true}, "fused_ops": {"list": {"s": ["Qmlhc0FkZA==", "UmVsdQ=="]}}, "epsilon": {"f": 0.0}, "dilations": {"list": {"i": ["1", "1", "1", "1"]}}, "num_args": {"i": "1"}, "strides": {"list": {"i": ["1", "1", "1", "1"]}}, "padding": {"s": "VkFMSUQ="}, "explicit_paddings": {"list": {}}}}, {"name": "StatefulPartitionedCall/model/conv3_block6_3_conv/BiasAdd", "op": "_FusedConv2D", "input": ["StatefulPartitionedCall/model/conv3_block6_2_relu/Relu", "StatefulPartitionedCall/model/conv3_block6_3_conv/Conv2D/ReadVariableOp", "StatefulPartitionedCall/model/conv3_block6_3_conv/BiasAdd/ReadVariableOp"], "device": "/device:CPU:0", "attr": {"use_cudnn_on_gpu": {"b": true}, "explicit_paddings": {"list": {}}, "fused_ops": {"list": {"s": ["Qmlhc0FkZA=="]}}, "padding": {"s": "VkFMSUQ="}, "epsilon": {"f": 0.0}, "strides": {"list": {"i": ["1", "1", "1", "1"]}}, "dilations": {"list": {"i": ["1", "1", "1", "1"]}}, "T": {"type": "DT_FLOAT"}, "num_args": {"i": "1"}, "data_format": {"s": "TkhXQw=="}}}, {"name": "StatefulPartitionedCall/model/conv3_block6_out/add", "op": "AddV2", "input": ["StatefulPartitionedCall/model/conv3_block5_out/add", "StatefulPartitionedCall/model/conv3_block6_3_conv/BiasAdd"], "attr": {"T": {"type": "DT_FLOAT"}}}, {"name": "StatefulPartitionedCall/model/conv3_block7_preact_bn/FusedBatchNormV3/Mul", "op": "Mul", "input": ["StatefulPartitionedCall/model/conv3_block6_out/add", "StatefulPartitionedCall/model/conv3_block7_preact_bn/FusedBatchNormV3/Scaled"], "attr": {"T": {"type": "DT_FLOAT"}}}, {"name": "StatefulPartitionedCall/model/conv3_block7_preact_bn/FusedBatchNormV3", "op": "Add", "input": ["StatefulPartitionedCall/model/conv3_block7_preact_bn/FusedBatchNormV3/Mul", "StatefulPartitionedCall/model/conv3_block7_preact_bn/FusedBatchNormV3/Offset"], "attr": {"T": {"type": "DT_FLOAT"}}}, {"name": "StatefulPartitionedCall/model/conv3_block7_preact_relu/Relu", "op": "Relu", "input": ["StatefulPartitionedCall/model/conv3_block7_preact_bn/FusedBatchNormV3"], "attr": {"T": {"type": "DT_FLOAT"}}}, {"name": "StatefulPartitionedCall/model/conv3_block7_1_relu/Relu", "op": "_FusedConv2D", "input": ["StatefulPartitionedCall/model/conv3_block7_preact_relu/Relu", "StatefulPartitionedCall/model/conv3_block7_1_conv/Conv2D_weights", "StatefulPartitionedCall/model/conv3_block7_1_conv/Conv2D_bn_offset"], "device": "/device:CPU:0", "attr": {"data_format": {"s": "TkhXQw=="}, "fused_ops": {"list": {"s": ["Qmlhc0FkZA==", "UmVsdQ=="]}}, "use_cudnn_on_gpu": {"b": true}, "strides": {"list": {"i": ["1", "1", "1", "1"]}}, "dilations": {"list": {"i": ["1", "1", "1", "1"]}}, "T": {"type": "DT_FLOAT"}, "padding": {"s": "VkFMSUQ="}, "num_args": {"i": "1"}, "epsilon": {"f": 0.0}, "explicit_paddings": {"list": {}}}}, {"name": "StatefulPartitionedCall/model/conv3_block7_2_pad/Pad", "o…
block6_2_pad/Pad/paddings", "shape": [4, 2], "dtype": "int32"}, {"name": "StatefulPartitionedCall/model/conv4_block6_3_conv/Conv2D/ReadVariableOp", "shape": [1, 1, 256, 1024], "dtype": "float32"}, {"name": "StatefulPartitionedCall/model/conv4_block6_3_conv/BiasAdd/ReadVariableOp", "shape": [1024], "dtype": "float32"}, {"name": "StatefulPartitionedCall/model/conv4_block7_2_pad/Pad/paddings", "shape": [4, 2], "dtype": "int32"}, {"name": "StatefulPartitionedCall/model/conv4_block7_3_conv/Conv2D/ReadVariableOp", "shape": [1, 1, 256, 1024], "dtype": "float32"}, {"name": "StatefulPartitionedCall/model/conv4_block7_3_conv/BiasAdd/ReadVariableOp", "shape": [1024], "dtype": "float32"}, {"name": "StatefulPartitionedCall/model/conv4_block8_2_pad/Pad/paddings", "shape": [4, 2], "dtype": "int32"}, {"name": "StatefulPartitionedCall/model/conv4_block8_3_conv/Conv2D/ReadVariableOp", "shape": [1, 1, 256, 1024], "dtype": "float32"}, {"name": "StatefulPartitionedCall/model/conv4_block8_3_conv/BiasAdd/ReadVariableOp", "shape": [1024], "dtype": "float32"}, {"name": "StatefulPartitionedCall/model/conv4_block9_2_pad/Pad/paddings", "shape": [4, 2], "dtype": "int32"}, {"name": "StatefulPartitionedCall/model/conv4_block9_3_conv/Conv2D/ReadVariableOp", "shape": [1, 1, 256, 1024], "dtype": "float32"}, {"name": "StatefulPartitionedCall/model/conv4_block9_3_conv/BiasAdd/ReadVariableOp", "shape": [1024], "dtype": "float32"}, {"name": "StatefulPartitionedCall/model/conv4_block10_2_pad/Pad/paddings", "shape": [4, 2], "dtype": "int32"}, {"name": "StatefulPartitionedCall/model/conv4_block10_3_conv/Conv2D/ReadVariableOp", "shape": [1, 1, 256, 1024], "dtype": "float32"}, {"name": "StatefulPartitionedCall/model/conv4_block10_3_conv/BiasAdd/ReadVariableOp", "shape": [1024], "dtype": "float32"}, {"name": "StatefulPartitionedCall/model/conv4_block11_2_pad/Pad/paddings", "shape": [4, 2], "dtype": "int32"}, {"name": "StatefulPartitionedCall/model/conv4_block11_3_conv/Conv2D/ReadVariableOp", "shape": [1, 1, 256, 1024], "dtype": "float32"}, {"name": "StatefulPartitionedCall/model/conv4_block11_3_conv/BiasAdd/ReadVariableOp", "shape": [1024], "dtype": "float32"}, {"name": "StatefulPartitionedCall/model/conv4_block12_2_pad/Pad/paddings", "shape": [4, 2], "dtype": "int32"}, {"name": "StatefulPartitionedCall/model/conv4_block12_3_conv/Conv2D/ReadVariableOp", "shape": [1, 1, 256, 1024], "dtype": "float32"}, {"name": "StatefulPartitionedCall/model/conv4_block12_3_conv/BiasAdd/ReadVariableOp", "shape": [1024], "dtype": "float32"}, {"name": "StatefulPartitionedCall/model/conv4_block13_2_pad/Pad/paddings", "shape": [4, 2], "dtype": "int32"}, {"name": "StatefulPartitionedCall/model/conv4_block13_3_conv/Conv2D/ReadVariableOp", "shape": [1, 1, 256, 1024], "dtype": "float32"}, {"name": "StatefulPartitionedCall/model/conv4_block13_3_conv/BiasAdd/ReadVariableOp", "shape": [1024], "dtype": "float32"}, {"name": "StatefulPartitionedCall/model/conv4_block14_2_pad/Pad/paddings", "shape": [4, 2], "dtype": "int32"}, {"name": "StatefulPartitionedCall/model/conv4_block14_3_conv/Conv2D/ReadVariableOp", "shape": [1, 1, 256, 1024], "dtype": "float32"}, {"name": "StatefulPartitionedCall/model/conv4_block14_3_conv/BiasAdd/ReadVariableOp", "shape": [1024], "dtype": "float32"}, {"name": "StatefulPartitionedCall/model/conv4_block15_2_pad/Pad/paddings", "shape": [4, 2], "dtype": "int32"}, {"name": "StatefulPartitionedCall/model/conv4_block15_3_conv/Conv2D/ReadVariableOp", "shape": [1, 1, 256, 1024], "dtype": "float32"}, {"name": "StatefulPartitionedCall/model/conv4_block15_3_conv/BiasAdd/ReadVariableOp", "shape": [1024], "dtype": "float32"}, {"name": "StatefulPartitionedCall/model/conv4_block16_2_pad/Pad/paddings", "shape": [4, 2], "dtype": "int32"}, {"name": "StatefulPartitionedCall/model/conv4_block16_3_conv/Conv2D/ReadVariableOp", "shape": [1, 1, 256, 1024], "dtype": "float32"}, {"name": "StatefulPartitionedCall/model/conv4_block16_3_conv/BiasAdd/ReadVariableOp", "shape": [1024], "dtype": "float32"}, {"name": "StatefulPartitionedCall/model/conv4_block17_2_pad/Pad/paddings", "shape": [4, 2], "dtype": "int32"}, {"name": "StatefulPartitionedCall/model/conv4_block17_3_conv/Conv2D/ReadVariableOp", "shape": [1, 1, 256, 1024], "dtype": "float32"}, {"name": "StatefulPartitionedCall/model/conv4_block17_3_conv/BiasAdd/ReadVariableOp", "shape": [1024], "dtype": "float32"}, {"name": "StatefulPartitionedCall/model/conv4_block18_2_pad/Pad/paddings", "shape": [4, 2], "dtype": "int32"}, {"name": "StatefulPartitionedCall/model/conv4_block18_3_conv/Conv2D/ReadVariableOp", "shape": [1, 1, 256, 1024], "dtype": "float32"}, {"name": "StatefulPartitionedCall/model/conv4_block18_3_conv/BiasAdd/ReadVariableOp", "shape": [1024], "dtype": "float32"}, {"name": "StatefulPartitionedCall/model/conv4_block19_2_pad/Pad/paddings", "shape": [4, 2], "dtype": "int32"}, {"name": "StatefulPartitionedCall/model/conv4_block19_3_conv/Conv2D/ReadVariableOp", "shape": [1, 1, 256, 1024], "dtype": "float32"}, {"name": "StatefulPartitionedCall/model/conv4_block19_3_conv/BiasAdd/ReadVariableOp", "shape": [1024], "dtype": "float32"}, {"name": "StatefulPartitionedCall/model/conv4_block20_2_pad/Pad/paddings", "shape": [4, 2], "dtype": "int32"}, {"name": "StatefulPartitionedCall/model/conv4_block20_3_conv/Conv2D/ReadVariableOp", "shape": [1, 1, 256, 1024], "dtype": "float32"}, {"name": "StatefulPartitionedCall/model/conv4_block20_3_conv/BiasAdd/ReadVariableOp", "shape": [1024], "dtype": "float32"}, {"name": "StatefulPartitionedCall/model/conv4_block21_2_pad/Pad/paddings", "shape": [4, 2], "dtype": "int32"}, {"name": "StatefulPartitionedCall/model/conv4_block21_3_conv/Conv2D/ReadVariableOp", "shape": [1, 1, 256, 1024], "dtype": "float32"}, {"name": "StatefulPartitionedCall/model/conv4_block21_3_conv/BiasAdd/ReadVariableOp", "shape": [1024], "dtype": "float32"}, {"name": "StatefulPartitionedCall/model/conv4_block22_2_pad/Pad/paddings", "shape": [4, 2], "dtype": "int32"}, {"name": "StatefulPartitionedCall/model/conv4_block22_3_conv/Conv2D/ReadVariableOp", "shape": [1, 1, 256, 1024], "dtype": "float32"}, {"name": "StatefulPartitionedCall/model/conv4_block22_3_conv/BiasAdd/ReadVariableOp", "shape": [1024], "dtype": "float32"}, {"name": "StatefulPartitionedCall/model/conv4_block23_2_pad/Pad/paddings", "shape": [4, 2], "dtype": "int32"}, {"name": "StatefulPartitionedCall/model/conv4_block23_3_conv/Conv2D/ReadVariableOp", "shape": [1, 1, 256, 1024], "dtype": "float32"}, {"name": "StatefulPartitionedCall/model/conv4_block23_3_conv/BiasAdd/ReadVariableOp", "shape": [1024], "dtype": "float32"}, {"name": "StatefulPartitionedCall/model/conv4_block24_2_pad/Pad/paddings", "shape": [4, 2], "dtype": "int32"}, {"name": "StatefulPartitionedCall/model/conv4_block24_3_conv/Conv2D/ReadVariableOp", "shape": [1, 1, 256, 1024], "dtype": "float32"}, {"name": "StatefulPartitionedCall/model/conv4_block24_3_conv/BiasAdd/ReadVariableOp", "shape": [1024], "dtype": "float32"}, {"name": "StatefulPartitionedCall/model/conv4_block25_2_pad/Pad/paddings", "shape": [4, 2], "dtype": "int32"}, {"name": "StatefulPartitionedCall/model/conv4_block25_3_conv/Conv2D/ReadVariableOp", "shape": [1, 1, 256, 1024], "dtype": "float32"}, {"name": "StatefulPartitionedCall/model/conv4_block25_3_conv/BiasAdd/ReadVariableOp", "shape": [1024], "dtype": "float32"}, {"name": "StatefulPartitionedCall/model/conv4_block26_2_pad/Pad/paddings", "shape": [4, 2], "dtype": "int32"}, {"name": "StatefulPartitionedCall/model/conv4_block26_3_conv/Conv2D/ReadVariableOp", "shape": [1, 1, 256, 1024], "dtype": "float32"}, {"name": "StatefulPartitionedCall/model/conv4_block26_3_conv/BiasAdd/ReadVariableOp", "shape": [1024], "dtype": "float32"}, {"name": "StatefulPartitionedCall/model/conv4_block27_2_pad/Pad/paddings", "shape": [4, 2], "dtype": "int32"}, {"name": "StatefulPartitionedCall/model/conv4_block27_3_conv/Conv2D/ReadVariableOp", "shape": [1, 1, 256, 1024], "dtype": "float32"}, {"name": "StatefulPartitionedCall/model/conv4_block27_3_conv/BiasAdd/ReadVariableOp", "shape": [1024], "dtype": "float32"}, {"name": "StatefulPartitionedCall/model/conv4_block28_2_pad/Pad/paddings", "shape": [4, 2], "dtype": "int32"}, {"name": "StatefulPartitionedCall/model/conv4_block28_3_conv/Conv2D/ReadVariableOp", "shape": [1, 1, 256, 1024], "dtype": "float32"}, {"name": "StatefulPartitionedCall/model/conv4_block28_3_conv/BiasAdd/ReadVariableOp", "shape": [1024], "dtype": "float32"}, {"name": "StatefulPartitionedCall/model/conv4_block29_2_pad/Pad/paddings", "shape": [4, 2], "dtype": "int32"}, {"name": "StatefulPartitionedCall/model/conv4_block29_3_conv/Conv2D/ReadVariableOp", "shape": [1, 1, 256, 1024], "dtype": "float32"}, {"name": "StatefulPartitionedCall/model/conv4_block29_3_conv/BiasAdd/ReadVariableOp", "shape": [1024], "dtype": "float32"}, {"name": "StatefulPartitionedCall/model/conv4_block30_2_pad/Pad/paddings", "shape": [4, 2], "dtype": "int32"}, {"name": "StatefulPartitionedCall/model/conv4_block30_3_conv/Conv2D/ReadVariableOp", "shape": [1, 1, 256, 1024], "dtype": "float32"}, {"name": "StatefulPartitionedCall/model/conv4_block30_3_conv/BiasAdd/ReadVariableOp", "shape": [1024], "dtype": "float32"}, {"name": "StatefulPartitionedCall/model/conv4_block31_2_pad/Pad/paddings", "shape": [4, 2], "dtype": "int32"}, {"name": "StatefulPartitionedCall/model/conv4_block31_3_conv/Conv2D/ReadVariableOp", "shape": [1, 1, 256, 1024], "dtype": "float32"}, {"name": "StatefulPartitionedCall/model/conv4_block31_3_conv/BiasAdd/ReadVariableOp", "shape": [1024], "dtype": "float32"}, {"name": "StatefulPartitionedCall/model/conv4_block32_2_pad/Pad/paddings", "shape": [4, 2], "dtype": "int32"}, {"name": "StatefulPartitionedCall/model/conv4_block32_3_conv/Conv2D/ReadVariableOp", "shape": [1, 1, 256, 1024], "dtype": "float32"}, {"name": "StatefulPartitionedCall/model/conv4_block32_3_conv/BiasAdd/ReadVariableOp", "shape": [1024], "dtype": "float32"}, {"name": "StatefulPartitionedCall/model/conv4_block33_2_pad/Pad/paddings", "shape": [4, 2], "dtype": "int32"}, {"name": "StatefulPartitionedCall/model/conv4_block33_3_conv/Conv2D/ReadVariableOp", "shape": [1, 1, 256, 1024], "dtype": "float32"}, {"name": "StatefulPartitionedCall/model/conv4_block33_3_conv/BiasAdd/ReadVariableOp", "shape": [1024], "dtype": "float32"}, {"name": "StatefulPartitionedCall/model/conv4_block34_2_pad/Pad/paddings", "shape": [4, 2], "dtype": "int32"}, {"name": "StatefulPartitionedCall/model/conv4_block34_3_conv/Conv2D/ReadVariableOp", "shape": [1, 1, 256, 1024], "dtype": "float32"}, {"name": "StatefulPartitionedCall/model/conv4_block34_3_conv/BiasAdd/ReadVariableOp", "shape": [1024], "dtype": "float32"}, {"name": "StatefulPartitionedCall/model/conv4_block35_2_pad/Pad/paddings", "shape": [4, 2], "dtype": "int32"}, {"name": "StatefulPartitionedCall/model/conv4_block35_3_conv/Conv2D/ReadVariableOp", "shape": [1, 1, 256, 1024], "dtype": "float32"}, {"name": "StatefulPartitionedCall/model/conv4_block35_3_conv/BiasAdd/ReadVariableOp", "shape": [1024], "dtype": "float32"}, {"name": "StatefulPartitionedCall/model/conv4_block36_2_pad/Pad/paddings", "shape": [4, 2], "dtype": "int32"}, {"name": "StatefulPartitionedCall/model/conv4_block36_3_conv/Conv2D/ReadVariableOp", "shape": [1, 1, 256, 1024], "dtype": "float32"}, {"name": "StatefulPartitionedCall/model/conv4_block36_3_conv/BiasAdd/ReadVariableOp", "shape": [1024], "dtype": "float32"}, {"name": "StatefulPartitionedCall/model/conv5_block1_2_pad/Pad/paddings", "shape": [4, 2], "dtype": "int32"}, {"name": "StatefulPartitionedCall/model/conv5_block1_3_conv/Conv2D/ReadVariableOp", "shape": [1, 1, 512, 2048], "dtype": "float32"}, {"name": "StatefulPartitionedCall/model/conv5_block1_3_conv/BiasAdd/ReadVariableOp", "shape": [2048], "dtype": "float32"}, {"name": "StatefulPartitionedCall/model/conv5_block2_2_pad/Pad/paddings", "shape": [4, 2], "dtype": "int32"}, {"name": "StatefulPartitionedCall/model/conv5_block2_3_conv/Conv2D/ReadVariableOp", "shape": [1, 1, 512, 2048], "dtype": "float32"}, {"name": "StatefulPartitionedCall/model/conv5_block2_3_conv/BiasAdd/ReadVariableOp", "shape": [2048], "dtype": "float32"}, {"name": "StatefulPartitionedCall/model/conv5_block3_2_pad/Pad/paddings", "shape": [4, 2], "dtype": "int32"}, {"name": "StatefulPartitionedCall/model/conv5_block3_3_conv/Conv2D/ReadVariableOp", "shape": [1, 1, 512, 2048], "dtype": "float32"}, {"name": "StatefulPartitionedCall/model/conv5_block3_3_conv/BiasAdd/ReadVariableOp", "shape": [2048], "dtype": "float32"}, {"name": "StatefulPartitionedCall/model/global_max_pooling2d/Max/reduction_indices", "shape": [2], "dtype": "int32"}, {"name": "StatefulPartitionedCall/model/dense/MatMul/ReadVariableOp", "shape": [2048, 10], "dtype": "float32"}, {"name": "StatefulPartitionedCall/model/dense/BiasAdd/ReadVariableOp", "shape": [10], "dtype": "float32"}, {"name": "StatefulPartitionedCall/model/conv4_block26_preact_bn/FusedBatchNormV3/Scaled", "shape": [1024], "dtype": "float32"}, {"name": "StatefulPartitionedCall/model/conv2_block1_1_conv/Conv2D_weights", "shape": [1, 1, 64, 64], "dtype": "float32"}, {"name": "StatefulPartitionedCall/model/conv2_block1_1_conv/Conv2D_bn_offset", "shape": [64], "dtype": "float32"}, {"name": "StatefulPartitionedCall/model/conv4_block26_preact_bn/FusedBatchNormV3/Offset", "shape": [1024], "dtype": "float32"}, {"name": "StatefulPartitionedCall/model/conv2_block1_2_conv/Conv2D_weights", "shape": [3, 3, 64, 64], "dtype": "float32"}, {"name": "StatefulPartitionedCall/model/conv2_block1_2_conv/Conv2D_bn_offset", "shape": [64], "dtype": "float32"}, {"name": "StatefulPartitionedCall/model/conv2_block2_1_conv/Conv2D_weights", "shape": [1, 1, 256, 64], "dtype": "float32"}, {"name": "StatefulPartitionedCall/model/conv4_block25_preact_bn/FusedBatchNormV3/Scaled", "shape": [1024], "dtype": "float32"}, {"name": "StatefulPartitionedCall/model/conv2_block2_1_conv/Conv2D_bn_offset", "shape": [64], "dtype": "float32"}, {"name": "StatefulPartitionedCall/model/conv2_block2_2_conv/Conv2D_weights", "shape": [3, 3, 64, 64], "dtype": "float32"}, {"name": "StatefulPartitionedCall/model/conv2_block2_2_conv/Conv2D_bn_offset", "shape": [64], "dtype": "float32"}, {"name": "StatefulPartitionedCall/model/conv4_block25_preact_bn/FusedBatchNormV3/Offset", "shape": [1024], "dtype": "float32"}, {"name": "StatefulPartitionedCall/model/conv2_block3_1_conv/Conv2D_weights", "shape": [1, 1, 256, 64], "dtype": "float32"}, {"name": "StatefulPartitionedCall/model/conv2_block3_1_conv/Conv2D_bn_offset", "shape": [64], "dtype": "float32"}, {"name": "StatefulPartitionedCall/model/conv2_block3_2_conv/Conv2D_weights", "shape": [3, 3, 64, 64], "dtype": "float32"}, {"name": "StatefulPartitionedCall/model/conv4_block24_preact_bn/FusedBatchNormV3/Scaled", "shape": [1024], "dtype": "float32"}, {"name": "StatefulPartitionedCall/model/conv2_block3_2_conv/Conv2D_bn_offset", "shape": [64], "dtype": "float32"}, {"name": "StatefulPartitionedCall/model/conv4_block24_preact_bn/FusedBatchNormV3/Offset", "shape": [1024], "dtype": "float32"}, {"name": "StatefulPartitionedCall/model/conv3_block1_1_conv/Conv2D_weights", "shape": [1, 1, 256, 128], "dtype": "float32"}, {"name": "StatefulPartitionedCall/model/conv3_block1_1_conv/Conv2D_bn_offset", "shape": [128], "dtype": "float32"}, {"name": "StatefulPartitionedCall/model/conv3_block1_2_conv/Conv2D_weights", "shape": [3, 3, 128, 128], "dtype": "float32"}, {"name": "StatefulPartitionedCall/model/conv3_block1_2_conv/Conv2D_bn_offset", "shape": [128], "dtype": "float32"}, {"name": "StatefulPartitionedCall/model/conv4_block23_preact_bn/FusedBatchNormV3/Scaled", "shape": [1024], "dtype": "float32"}, {"name": "StatefulPartitionedCall/model/conv3_block2_1_conv/Conv2D_weights", "shape": [1, 1, 512, 128], "dtype": "float32"}, {"name": "StatefulPartitionedCall/model/conv3_block2_1_conv/Conv2D_bn_offset", "shape": [128], "dtype": "float32"}, {"name": "StatefulPartitionedCall/model/conv4_block23_preact_bn/FusedBatchNormV3/Offset", "shape": [1024], "dtype": "float32"}, {"name": "StatefulPartitionedCall/model/conv3_block2_2_conv/Conv2D_weights", "shape": [3, 3, 128, 128], "dtype": "float32"}, {"name": "StatefulPartitionedCall/model/conv3_block2_2_conv/Conv2D_bn_offset", "shape": [128], "dtype": "float32"}, {"name": "StatefulPartitionedCall/model/conv3_block3_1_conv/Conv2D_weights", "shape": [1, 1, 512, 128], "dtype": "float32"}, {"name": "StatefulPartitionedCall/model/conv4_block22_preact_bn/FusedBatchNormV3/Scaled", "shape": [1024], "dtype": "float32"}, {"name": "StatefulPartitionedCall/model/conv3_block3_1_conv/Conv2D_bn_offset", "shape": [128], "dtype": "float32"}, {"name": "StatefulPartitionedCall/model/conv3_block3_2_conv/Conv2D_weights", "shape": [3, 3, 128, 128], "dtype": "float32"}, {"name": "StatefulPartitionedCall/model/conv3_block3_2_conv/Conv2D_bn_offset", "shape": [128], "dtype": "float32"}, {"name": "StatefulPartitionedCall/model/conv4_block22_preact_bn/FusedBatchNormV3/Offset", "shape": [1024], "dtype": "float32"}, {"name": "StatefulPartitionedCall/model/conv3_block4_1_conv/Conv2D_weights", "shape": [1, 1, 512, 128], "dtype": "float32"}, {"name": "StatefulPartitionedCall/model/conv3_block4_1_conv/Conv2D_bn_offset", "shape": [128], "dtype": "float32"}, {"name": "StatefulPartitionedCall/model/conv3_block4_2_conv/Conv2D_weights", "shape": [3, 3, 128, 128], "dtype": "float32"}, {"name": "StatefulPartitionedCall/model/conv4_block21_preact_bn/FusedBatchNormV3/Scaled", "shape": [1024], "dtype": "float32"}, {"name": "StatefulPartitionedCall/model/conv3_block4_2_conv/Conv2D_bn_offset", "shape": [128], "dtype": "float32"}, {"name": "StatefulPartitionedCall/model/conv3_block5_1_conv/Conv2D_weights", "shape": [1, 1, 512, 128], "dtype": "float32"}, {"name": "StatefulPartitionedCall/model/conv4_block21_preact_bn/FusedBatchNormV3/Offset", "shape": [1024], "dtype": "float32"}, {"name": "StatefulPartitionedCall/model/conv3_block5_1_conv/Conv2D_bn_offset", "shape": [128], "dtype": "float32"}, {"name": "StatefulPartitionedCall/model/conv3_block5_2_conv/Conv2D_weights", "shape": [3, 3, 128, 128], "dtype": "float32"}, {"name": "StatefulPartitionedCall/model/conv3_block5_2_conv/Conv2D_bn_offset", "shape": [128], "dtype": "float32"}, {"name": "StatefulPartitionedCall/model/conv4_block20_preact_bn/FusedBatchNormV3/Scaled", "shape": [1024], "dtype": "float32"}, {"name": "StatefulPartitionedCall/model/conv3_block6_1_conv/Conv2D_weights", "shape": [1, 1, 512, 128], "dtype": "float32"}, {"name": "StatefulPartitionedCall/model/conv3_block6_1_conv/Conv2D_bn_offset", "shape": [128], "dtype": "float32"}, {"name": "StatefulPartitionedCall/model/conv3_block6_2_conv/Conv2D_weights", "shape": [3, 3, 128, 128], "dtype": "float32"}, {"name": "StatefulPartitionedCall/model/conv4_block20_preact_bn/FusedBatchNormV3/Offset", "shape": [1024], "dtype": "float32"}, {"name": "StatefulPartitionedCall/model/conv3_block6_2_conv/Conv2D_bn_offset", "shape": [128], "dtype": "float32"}, {"name": "StatefulPartitionedCall/model/conv3_block7_1_conv/Conv2D_weights", "shape": [1, 1, 512, 128], "dtype": "float32"}, {"name": "StatefulPartitionedCall/model/conv3_block7_1_conv/Conv2D_bn_offset", "shape": [128], "dtype": "float32"}, {"name": "StatefulPartitionedCall/model/conv4_block19_preact_bn/FusedBatchNormV3/Scaled", "shape": [1024], "dtype": "float32"}, {"name": "StatefulPartitionedCall/model/conv3_block7_2_conv/Conv2D_weights", "shape": [3, 3, 128, 128], "dtype": "float32"}, {"name": "StatefulPartitionedCall/model/conv3_block7_2_conv/Conv2D_bn_offset", "shape": [128], "dtype": "float32"}, {"name": "StatefulPartitionedCall/model/conv4_block19_preact_bn/FusedBatchNormV3/Offset", "shape": [1024], "dtype": "float32"}, {"name": "StatefulPartitionedCall/model/conv3_block8_1_conv/Conv2D_weights", "shape": [1, 1, 512, 128], "dtype": "float32"}, {"name": "StatefulPartitionedCall/model/conv3_block8_1_conv/Conv2D_bn_offset", "shape": [128], "dtype": "float32"}, {"name": "StatefulPartitionedCall/model/conv3_block8_2_conv/Conv2D_weights", "shape": [3, 3, 128, 128], "dtype": "float32"}, {"name": "StatefulPartitionedCall/model/conv3_block8_2_conv/Conv2D_bn_offset", "shape": [128], "dtype": "float32"}, {"name": "StatefulPartitionedCall/model/conv4_block18_preact_bn/FusedBatchNormV3/Scaled", "shape": [1024], "dtype": "float32"}, {"name": "StatefulPartitionedCall/model/conv4_block1_1_conv/Conv2D_weights", "shape": [1, 1, 512, 256], "dtype": "float32"}, {"name": "StatefulPartitionedCall/model/conv4_block18_preact_bn/FusedBatchNormV3/Offset", "shape": [1024], "dtype": "float32"}, {"name": "StatefulPartitionedCall/model/conv4_block1_1_conv/Conv2D_bn_offset", "shape": [256], "dtype": "float32"}, {"name": "StatefulPartitionedCall/model/conv4_block1_2_conv/Conv2D_weights", "shape": [3, 3, 256, 256], "dtype": "float32"}, {"name": "StatefulPartitionedCall/model/conv4_block1_2_conv/Conv2D_bn_offset", "shape": [256], "dtype": "float32"}, {"name": "StatefulPartitionedCall/model/conv4_block17_preact_bn/FusedBatchNormV3/Scaled", "shape": [1024], "dtype": "float32"}, {"name": "StatefulPartitionedCall/model/conv4_block2_1_conv/Conv2D_weights", "shape": [1, 1, 1024, 256], "dtype": "float32"}, {"name": "StatefulPartitionedCall/model/conv4_block2_1_conv/Conv2D_bn_offset", "shape": [256], "dtype": "float32"}, {"name": "StatefulPartitionedCall/model/conv4_block2_2_conv/Conv2D_weights", "shape": [3, 3, 256, 256], "dtype": "float32"}, {"name": "StatefulPartitionedCall/model/conv4_block17_preact_bn/FusedBatchNormV3/Offset", "shape": [1024], "dtype": "float32"}, {"name": "StatefulPartitionedCall/model/conv4_block2_2_conv/Conv2D_bn_offset", "shape": [256], "dtype": "float32"}, {"name": "StatefulPartitionedCall/model/conv4_block3_1_conv/Conv2D_weights", "shape": [1, 1, 1024, 256], "dtype": "float32"}, {"name": "StatefulPartitionedCall/model/conv4_block3_1_conv/Conv2D_bn_offset", "shape": [256], "dtype": "float32"}, {"name": "StatefulPartitionedCall/model/conv4_block16_preact_bn/FusedBatchNormV3/Scaled", "shape": [1024], "dtype": "float32"}, {"name": "StatefulPartitionedCall/model/conv4_block3_2_conv/Conv2D_weights", "shape": [3, 3, 256, 256], "dtype": "float32"}, {"name": "StatefulPartitionedCall/model/conv4_block3_2_conv/Conv2D_bn_offset", "shape": [256], "dtype": "float32"}, {"name": "StatefulPartitionedCall/model/conv4_block16_preact_bn/FusedBatchNormV3/Offset", "shape": [1024], "dtype": "float32"}, {"name": "StatefulPartitionedCall/model/conv4_block4_1_conv/Conv2D_weights", "shape": [1, 1, 1024, 256], "dtype": "float32"}, {"name": "StatefulPartitionedCall/model/conv4_block4_1_conv/Conv2D_bn_offset", "shape": [256], "dtype": "float32"}, {"name": "StatefulPartitionedCall/model/conv4_block4_2_conv/Conv2D_weights", "shape": [3, 3, 256, 256], "dtype": "float32"}, {"name": "StatefulPartitionedCall/model/conv4_block4_2_conv/Conv2D_bn_offset", "shape": [256], "dtype": "float32"}, {"name": "StatefulPartitionedCall/model/conv4_block15_preact_bn/FusedBatchNormV3/Scaled", "shape": [1024], "dtype": "float32"}, {"name": "StatefulPartitionedCall/model/conv4_block5_1_conv/Conv2D_weights", "shape": [1, 1, 1024, 256], "dtype": "float32"}, {"name": "StatefulPartitionedCall/model/conv4_block5_1_conv/Conv2D_bn_offset", "shape": [256], "dtype": "float32"}, {"name": "StatefulPartitionedCall/model/conv4_block15_preact_bn/FusedBatchNormV3/Offset", "shape": [1024], "dtype": "float32"}, {"name": "StatefulPartitionedCall/model/conv4_block5_2_conv/Conv2D_weights", "shape": [3, 3, 256, 256], "dtype": "float32"}, {"name": "StatefulPartitionedCall/model/conv4_block5_2_conv/Conv2D_bn_offset", "shape": [256], "dtype": "float32"}, {"name": "StatefulPartitionedCall/model/conv4_block6_1_conv/Conv2D_weights", "shape": [1, 1, 1024, 256], "dtype": "float32"}, {"name": "StatefulPartitionedCall/model/conv4_block14_preact_bn/FusedBatchNormV3/Scaled", "shape": [1024], "dtype": "float32"}, {"name": "StatefulPartitionedCall/model/conv4_block6_1_conv/Conv2D_bn_offset", "shape": [256], "dtype": "float32"}, {"name": "StatefulPartitionedCall/model/conv4_block6_2_conv/Conv2D_weights", "shape": [3, 3, 256, 256], "dtype": "float32"}, {"name": "StatefulPartitionedCall/model/conv4_block6_2_conv/Conv2D_bn_offset", "shape": [256], "dtype": "float32"}, {"name": "StatefulPartitionedCall/model/conv4_block14_preact_bn/FusedBatchNormV3/Offset", "shape": [1024], "dtype": "float32"}, {"name": "StatefulPartitionedCall/model/conv4_block7_1_conv/Conv2D_weights", "shape": [1, 1, 1024, 256], "dtype": "float32"}, {"name": "StatefulPartitionedCall/model/conv4_block7_1_conv/Conv2D_bn_offset", "shape": [256], "dtype": "float32"}, {"name": "StatefulPartitionedCall/model/conv4_block7_2_conv/Conv2D_weights", "shape": [3, 3, 256, 256], "dtype": "float32"}, {"name": "StatefulPartitionedCall/model/conv4_block13_preact_bn/FusedBatchNormV3/Scaled", "shape": [1024], "dtype": "float32"}, {"name": "StatefulPartitionedCall/model/conv4_block7_2_conv/Conv2D_bn_offset", "shape": [256], "dtype": "float32"}, {"name": "StatefulPartitionedCall/model/conv4_block8_1_conv/Conv2D_weights", "shape": [1, 1, 1024, 256], "dtype": "float32"}, {"name": "StatefulPartitionedCall/model/conv4_block13_preact_bn/FusedBatchNormV3/Offset", "shape": [1024], "dtype": "float32"}, {"name": "StatefulPartitionedCall/model/conv4_block8_1_conv/Conv2D_bn_offset", "shape": [256], "dtype": "float32"}, {"name": "StatefulPartitionedCall/model/conv4_block8_2_conv/Conv2D_weights", "shape": [3, 3, 256, 256], "dtype": "float32"}, {"name": "StatefulPartitionedCall/model/conv4_block8_2_conv/Conv2D_bn_offset", "shape": [256], "dtype": "float32"}, {"name": "StatefulPartitionedCall/model/conv4_block12_preact_bn/FusedBatchNormV3/Scaled", "shape": [1024], "dtype": "float32"}, {"name": "StatefulPartitionedCall/model/conv4_block9_1_conv/Conv2D_weights", "shape": [1, 1, 1024, 256], "dtype": "float32"}, {"name": "StatefulPartitionedCall/model/conv4_block9_1_conv/Conv2D_bn_offset", "shape": [256], "dtype": "float32"}, {"name": "StatefulPartitionedCall/model/conv4_block9_2_conv/Conv2D_weights", "shape": [3, 3, 256, 256], "dtype": "float32"}, {"name": "StatefulPartitionedCall/model/conv4_block12_preact_bn/FusedBatchNormV3/Offset", "shape": [1024], "dtype": "float32"}, {"name": "StatefulPartitionedCall/model/conv4_block9_2_conv/Conv2D_bn_offset", "shape": [256], "dtype": "float32"}, {"name": "StatefulPartitionedCall/model/conv4_block10_1_conv/Conv2D_weights", "shape": [1, 1, 1024, 256], "dtype": "float32"}, {"name": "StatefulPartitionedCall/model/conv4_block10_1_conv/Conv2D_bn_offset", "shape": [256], "dtype": "float32"}, {"name": "StatefulPartitionedCall/model/conv4_block11_preact_bn/FusedBatchNormV3/Scaled", "shape": [1024], "dtype": "float32"}, {"name": "StatefulPartitionedCall/model/conv4_block10_2_conv/Conv2D_weights", "shape": [3, 3, 256, 256], "dtype": "float32"}, {"name": "StatefulPartitionedCall/model/conv4_block10_2_conv/Conv2D_bn_offset", "shape": [256], "dtype": "float32"}, {"name": "StatefulPartitionedCall/model/conv4_block11_preact_bn/FusedBatchNormV3/Offset", "shape": [1024], "dtype": "float32"}, {"name": "StatefulPartitionedCall/model/conv4_block11_1_conv/Conv2D_weights", "shape": [1, 1, 1024, 256], "dtype": "float32"}, {"name": "StatefulPartitionedCall/model/conv4_block11_1_conv/Conv2D_bn_offset", "shape": [256], "dtype": "float32"}, {"name": "StatefulPartitionedCall/model/conv4_block11_2_conv/Conv2D_weights", "shape": [3, 3, 256, 256], "dtype": "float32"}, {"name": "StatefulPartitionedCall/model/conv4_block11_2_conv/Conv2D_bn_offset", "shape": [256], "dtype": "float32"}, {"name": "StatefulPartitionedCall/model/conv4_block10_preact_bn/FusedBatchNormV3/Scaled", "shape": [1024], "dtype": "float32"}, {"name": "StatefulPartitionedCall/model/conv4_block12_1_conv/Conv2D_weights", "shape": [1, 1, 1024, 256], "dtype": "float32"}, {"name": "StatefulPartitionedCall/model/conv4_block12_1_conv/Conv2D_bn_offset", "shape": [256], "dtype": "float32"}, {"name": "StatefulPartitionedCall/model/conv4_block10_preact_bn/FusedBatchNormV3/Offset", "shape": [1024], "dtype": "float32"}, {"name": "StatefulPartitionedCall/model/conv4_block12_2_conv/Conv2D_weights", "shape": [3, 3, 256, 256], "dtype": "float32"}, {"name": "StatefulPartitionedCall/model/conv4_block12_2_conv/Conv2D_bn_offset", "shape": [256], "dtype": "float32"}, {"name": "StatefulPartitionedCall/model/conv4_block13_1_conv/Conv2D_weights", "shape": [1, 1, 1024, 256], "dtype": "float32"}, {"name": "StatefulPartitionedCall/model/conv4_block9_preact_bn/FusedBatchNormV3/Scaled", "shape": [1024], "dtype": "float32"}, {"name": "StatefulPartitionedCall/model/conv4_block13_1_conv/Conv2D_bn_offset", "shape": [256], "dtype": "float32"}, {"name": "StatefulPartitionedCall/model/conv4_block13_2_conv/Conv2D_weights", "shape": [3, 3, 256, 256], "dtype": "float32"}, {"name": "StatefulPartitionedCall/model/conv4_block13_2_conv/Conv2D_bn_offset", "shape": [256], "dtype": "float32"}, {"name": "StatefulPartitionedCall/model/conv4_block9_preact_bn/FusedBatchNormV3/Offset", "shape": [1024], "dtype": "float32"}, {"name": "StatefulPartitionedCall/model/conv4_block14_1_conv/Conv2D_weights", "shape": [1, 1, 1024, 256], "dtype": "float32"}, {"name": "StatefulPartitionedCall/model/conv4_block14_1_conv/Conv2D_bn_offset", "shape": [256], "dtype": "float32"}, {"name": "StatefulPartitionedCall/model/conv4_block14_2_conv/Conv2D_weights", "shape": [3, 3, 256, 256], "dtype": "float32"}, {"name": "StatefulPartitionedCall/model/conv4_block8_preact_bn/FusedBatchNormV3/Scaled", "shape": [1024], "dtype": "float32"}, {"name": "StatefulPartitionedCall/model/conv4_block14_2_conv/Conv2D_bn_offset", "shape": [256], "dtype": "float32"}, {"name": "StatefulPartitionedCall/model/conv4_block15_1_conv/Conv2D_weights", "shape": [1, 1, 1024, 256], "dtype": "float32"}, {"name": "StatefulPartitionedCall/model/conv4_block8_preact_bn/FusedBatchNormV3/Offset", "shape": [1024], "dtype": "float32"}, {"name": "StatefulPartitionedCall/model/conv4_block15_1_conv/Conv2D_bn_offset", "shape": [256], "dtype": "float32"}, {"name": "StatefulPartitionedCall/model/conv4_block15_2_conv/Conv2D_weights", "shape": [3, 3, 256, 256], "dtype": "float32"}, {"name": "StatefulPartitionedCall/model/conv4_block15_2_conv/Conv2D_bn_offset", "shape": [256], "dtype": "float32"}, {"name": "StatefulPartitionedCall/model/conv4_block7_preact_bn/FusedBatchNormV3/Scaled", "shape": [1024], "dtype": "float32"}, {"name": "StatefulPartitionedCall/model/conv4_block16_1_conv/Conv2D_weights", "shape": [1, 1, 1024, 256], "dtype": "float32"}, {"name": "StatefulPartitionedCall/model/conv4_block16_1_conv/Conv2D_bn_offset", "shape": [256], "dtype": "float32"}, {"name": "StatefulPartitionedCall/model/conv4_block16_2_conv/Conv2D_weights", "shape": [3, 3, 256, 256], "dtype": "float32"}, {"name": "StatefulPartitionedCall/model/conv4_block7_preact_bn/FusedBatchNormV3/Offset", "shape": [1024], "dtype": "float32"}, {"name": "StatefulPartitionedCall/model/conv4_block16_2_conv/Conv2D_bn_offset", "shape": [256], "dtype": "float32"}, {"name": "StatefulPartitionedCall/model/conv4_block17_1_conv/Conv2D_weights", "shape": [1, 1, 1024, 256], "dtype": "float32"}, {"name": "StatefulPartitionedCall/model/conv4_block17_1_conv/Conv2D_bn_offset", "shape": [256], "dtype": "float32"}, {"name": "StatefulPartitionedCall/model/conv4_block6_preact_bn/FusedBatchNormV3/Scaled", "shape": [1024], "dtype": "float32"}, {"name": "StatefulPartitionedCall/model/conv4_block17_2_conv/Conv2D_weights", "shape": [3, 3, 256, 256], "dtype": "float32"}, {"name": "StatefulPartitionedCall/model/conv4_block17_2_conv/Conv2D_bn_offset", "shape": [256], "dtype": "float32"}, {"name": "StatefulPartitionedCall/model/conv4_block6_preact_bn/FusedBatchNormV3/Offset", "shape": [1024], "dtype": "float32"}, {"name": "StatefulPartitionedCall/model/conv4_block18_1_conv/Conv2D_weights", "shape": [1, 1, 1024, 256], "dtype": "float32"}, {"name": "StatefulPartitionedCall/model/conv4_block18_1_conv/Conv2D_bn_offset", "shape": [256], "dtype": "float32"}, {"name": "StatefulPartitionedCall/model/conv4_block18_2_conv/Conv2D_weights", "shape": [3, 3, 256, 256], "dtype": "float32"}, {"name": "StatefulPartitionedCall/model/conv4_block18_2_conv/Conv2D_bn_offset", "shape": [256], "dtype": "float32"}, {"name": "StatefulPartitionedCall/model/conv4_block5_preact_bn/FusedBatchNormV3/Scaled", "shape": [1024], "dtype": "float32"}, {"name": "StatefulPartitionedCall/model/conv4_block19_1_conv/Conv2D_weights", "shape": [1, 1, 1024, 256], "dtype": "float32"}, {"name": "StatefulPartitionedCall/model/conv4_block19_1_conv/Conv2D_bn_offset", "shape": [256], "dtype": "float32"}, {"name": "StatefulPartitionedCall/model/conv4_block5_preact_bn/FusedBatchNormV3/Offset", "shape": [1024], "dtype": "float32"}, {"name": "StatefulPartitionedCall/model/conv4_block19_2_conv/Conv2D_weights", "shape": [3, 3, 256, 256], "dtype": "float32"}, {"name": "StatefulPartitionedCall/model/conv4_block19_2_conv/Conv2D_bn_offset", "shape": [256], "dtype": "float32"}, {"name": "StatefulPartitionedCall/model/conv4_block20_1_conv/Conv2D_weights", "shape": [1, 1, 1024, 256], "dtype": "float32"}, {"name": "StatefulPartitionedCall/model/conv4_block4_preact_bn/FusedBatchNormV3/Scaled", "shape": [1024], "dtype": "float32"}, {"name": "StatefulPartitionedCall/model/conv4_block20_1_conv/Conv2D_bn_offset", "shape": [256], "dtype": "float32"}, {"name": "StatefulPartitionedCall/model/conv4_block20_2_conv/Conv2D_weights", "shape": [3, 3, 256, 256], "dtype": "float32"}, {"name": "StatefulPartitionedCall/model/conv4_block20_2_conv/Conv2D_bn_offset", "shape": [256], "dtype": "float32"}, {"name": "StatefulPartitionedCall/model/conv4_block4_preact_bn/FusedBatchNormV3/Offset", "shape": [1024], "dtype": "float32"}, {"name": "StatefulPartitionedCall/model/conv4_block21_1_conv/Conv2D_weights", "shape": [1, 1, 1024, 256], "dtype": "float32"}, {"name": "StatefulPartitionedCall/model/conv4_block21_1_conv/Conv2D_bn_offset", "shape": [256], "dtype": "float32"}, {"name": "StatefulPartitionedCall/model/conv4_block21_2_conv/Conv2D_weights", "shape": [3, 3, 256, 256], "dtype": "float32"}, {"name": "StatefulPartitionedCall/model/conv4_block3_preact_bn/FusedBatchNormV3/Scaled", "shape": [1024], "dtype": "float32"}, {"name": "StatefulPartitionedCall/model/conv4_block21_2_conv/Conv2D_bn_offset", "shape": [256], "dtype": "float32"}, {"name": "StatefulPartitionedCall/model/conv4_block22_1_conv/Conv2D_weights", "shape": [1, 1, 1024, 256], "dtype": "float32"}, {"name": "StatefulPartitionedCall/model/conv4_block3_preact_bn/FusedBatchNormV3/Offset", "shape": [1024], "dtype": "float32"}, {"name": "StatefulPartitionedCall/model/conv4_block22_1_conv/Conv2D_bn_offset", "shape": [256], "dtype": "float32"}, {"name": "StatefulPartitionedCall/model/conv4_block22_2_conv/Conv2D_weights", "shape": [3, 3, 256, 256], "dtype": "float32"}, {"name": "StatefulPartitionedCall/model/conv4_block22_2_conv/Conv2D_bn_offset", "shape": [256], "dtype": "float32"}, {"name": "StatefulPartitionedCall/model/conv4_block2_preact_bn/FusedBatchNormV3/Scaled", "shape": [1024], "dtype": "float32"}, {"name": "StatefulPartitionedCall/model/conv4_block23_1_conv/Conv2D_weights", "shape": [1, 1, 1024, 256], "dtype": "float32"}, {"name": "StatefulPartitionedCall/model/conv4_block23_1_conv/Conv2D_bn_offset", "shape": [256], "dtype": "float32"}, {"name": "StatefulPartitionedCall/model/conv4_block23_2_conv/Conv2D_weights", "shape": [3, 3, 256, 256], "dtype": "float32"}, {"name": "StatefulPartitionedCall/model/conv4_block2_preact_bn/FusedBatchNormV3/Offset", "shape": [1024], "dtype": "float32"}, {"name": "StatefulPartitionedCall/model/conv4_block23_2_conv/Conv2D_bn_offset", "shape": [256], "dtype": "float32"}, {"name": "StatefulPartitionedCall/model/conv4_block24_1_conv/Conv2D_weights", "shape": [1, 1, 1024, 256], "dtype": "float32"}, {"name": "StatefulPartitionedCall/model/conv4_block24_1_conv/Conv2D_bn_offset", "shape": [256], "dtype": "float32"}, {"name": "StatefulPartitionedCall/model/conv4_block1_preact_bn/FusedBatchNormV3/Scaled", "shape": [512], "dtype": "float32"}, {"name": "StatefulPartitionedCall/model/conv4_block24_2_conv/Conv2D_weights", "shape": [3, 3, 256, 256], "dtype": "float32"}, {"name": "StatefulPartitionedCall/model/conv4_block24_2_conv/Conv2D_bn_offset", "shape": [256], "dtype": "float32"}, {"name": "StatefulPartitionedCall/model/conv4_block1_preact_bn/FusedBatchNormV3/Offset", "shape": [512], "dtype": "float32"}, {"name": "StatefulPartitionedCall/model/conv4_block25_1_conv/Conv2D_weights", "shape": [1, 1, 1024, 256], "dtype": "float32"}, {"name": "StatefulPartitionedCall/model/conv4_block25_1_conv/Conv2D_bn_offset", "shape": [256], "dtype": "float32"}, {"name": "StatefulPartitionedCall/model/conv4_block25_2_conv/Conv2D_weights", "shape": [3, 3, 256, 256], "dtype": "float32"}, {"name": "StatefulPartitionedCall/model/conv4_block25_2_conv/Conv2D_bn_offset", "shape": [256], "dtype": "float32"}, {"name": "StatefulPartitionedCall/model/conv3_block8_preact_bn/FusedBatchNormV3/Scaled", "shape": [512], "dtype": "float32"}, {"name": "StatefulPartitionedCall/model/conv4_block26_1_conv/Conv2D_weights", "shape": [1, 1, 1024, 256], "dtype": "float32"}, {"name": "StatefulPartitionedCall/model/conv4_block26_1_conv/Conv2D_bn_offset", "shape": [256], "dtype": "float32"}, {"name": "StatefulPartitionedCall/model/conv3_block8_preact_bn/FusedBatchNormV3/Offset", "shape": [512], "dtype": "float32"}, {"name": "StatefulPartitionedCall/model/conv4_block26_2_conv/Conv2D_weights", "shape": [3, 3, 256, 256], "dtype": "float32"}, {"name": "StatefulPartitionedCall/model/conv4_block26_2_conv/Conv2D_bn_offset", "shape": [256], "dtype": "float32"}, {"name": "StatefulPartitionedCall/model/conv4_block27_1_conv/Conv2D_weights", "shape": [1, 1, 1024, 256], "dtype": "float32"}, {"name": "StatefulPartitionedCall/model/conv3_block7_preact_bn/FusedBatchNormV3/Scaled", "shape": [512], "dtype": "float32"}, {"name": "StatefulPartitionedCall/model/conv4_block27_1_conv/Conv2D_bn_offset", "shape": [256], "dtype": "float32"}, {"name": "StatefulPartitionedCall/model/conv4_block27_2_conv/Conv2D_weights", "shape": [3, 3, 256, 256], "dtype": "float32"}, {"name": "StatefulPartitionedCall/model/conv4_block27_2_conv/Conv2D_bn_offset", "shape": [256], "dtype": "float32"}, {"name": "StatefulPartitionedCall/model/conv3_block7_preact_bn/FusedBatchNormV3/Offset", "shape": [512], "dtype": "float32"}, {"name": "StatefulPartitionedCall/model/conv4_block28_1_conv/Conv2D_weights", "shape": [1, 1, 1024, 256], "dtype": "float32"}, {"name": "StatefulPartitionedCall/model/conv4_block28_1_conv/Conv2D_bn_offset", "shape": [256], "dtype": "float32"}, {"name": "StatefulPartitionedCall/model/conv4_block28_2_conv/Conv2D_weights", "shape": [3, 3, 256, 256], "dtype": "float32"}, {"name": "StatefulPartitionedCall/model/conv3_block6_preact_bn/FusedBatchNormV3/Scaled", "shape": [512], "dtype": "float32"}, {"name": "StatefulPartitionedCall/model/conv4_block28_2_conv/Conv2D_bn_offset", "shape": [256], "dtype": "float32"}, {"name": "StatefulPartitionedCall/model/conv4_block29_1_conv/Conv2D_weights", "shape": [1, 1, 1024, 256], "dtype": "float32"}, {"name": "StatefulPartitionedCall/model/conv3_block6_preact_bn/FusedBatchNormV3/Offset", "shape": [512], "dtype": "float32"}, {"name": "StatefulPartitionedCall/model/conv4_block29_1_conv/Conv2D_bn_offset", "shape": [256], "dtype": "float32"}, {"name": "StatefulPartitionedCall/model/conv4_block29_2_conv/Conv2D_weights", "shape": [3, 3, 256, 256], "dtype": "float32"}, {"name": "StatefulPartitionedCall/model/conv4_block29_2_conv/Conv2D_bn_offset", "shape": [256], "dtype": "float32"}, {"name": "StatefulPartitionedCall/model/conv3_block5_preact_bn/FusedBatchNormV3/Scaled", "shape": [512], "dtype": "float32"}, {"name": "StatefulPartitionedCall/model/conv4_block30_1_conv/Conv2D_weights", "shape": [1, 1, 1024, 256], "dtype": "float32"}, {"name": "StatefulPartitionedCall/model/conv4_block30_1_conv/Conv2D_bn_offset", "shape": [256], "dtype": "float32"}, {"name": "StatefulPartitionedCall/model/conv4_block30_2_conv/Conv2D_weights", "shape": [3, 3, 256, 256], "dtype": "float32"}, {"name": "StatefulPartitionedCall/model/conv3_block5_preact_bn/FusedBatchNormV3/Offset", "shape": [512], "dtype": "float32"}, {"name": "StatefulPartitionedCall/model/conv4_block30_2_conv/Conv2D_bn_offset", "shape": [256], "dtype": "float32"}, {"name": "StatefulPartitionedCall/model/conv4_block31_1_conv/Conv2D_weights", "shape": [1, 1, 1024, 256], "dtype": "float32"}, {"name": "StatefulPartitionedCall/model/conv4_block31_1_conv/Conv2D_bn_offset", "shape": [256], "dtype": "float32"}, {"name": "StatefulPartitionedCall/model/conv3_block4_preact_bn/FusedBatchNormV3/Scaled", "shape": [512], "dtype": "float32"}, {"name": "StatefulPartitionedCall/model/conv4_block31_2_conv/Conv2D_weights", "shape": [3, 3, 256, 256], "dtype": "float32"}, {"name": "StatefulPartitionedCall/model/conv4_block31_2_conv/Conv2D_bn_offset", "shape": [256], "dtype": "float32"}, {"name": "StatefulPartitionedCall/model/conv3_block4_preact_bn/FusedBatchNormV3/Offset", "shape": [512], "dtype": "float32"}, {"name": "StatefulPartitionedCall/model/conv4_block32_1_conv/Conv2D_weights", "shape": [1, 1, 1024, 256], "dtype": "float32"}, {"name": "StatefulPartitionedCall/model/conv4_block32_1_conv/Conv2D_bn_offset", "shape": [256], "dtype": "float32"}, {"name": "StatefulPartitionedCall/model/conv4_block32_2_conv/Conv2D_weights", "shape": [3, 3, 256, 256], "dtype": "float32"}, {"name": "StatefulPartitionedCall/model/conv4_block32_2_conv/Conv2D_bn_offset", "shape": [256], "dtype": "float32"}, {"name": "StatefulPartitionedCall/model/conv3_block3_preact_bn/FusedBatchNormV3/Scaled", "shape": [512], "dtype": "float32"}, {"name": "StatefulPartitionedCall/model/conv4_block33_1_conv/Conv2D_weights", "shape": [1, 1, 1024, 256], "dtype": "float32"}, {"name": "StatefulPartitionedCall/model/conv4_block33_1_conv/Conv2D_bn_offset", "shape": [256], "dtype": "float32"}, {"name": "StatefulPartitionedCall/model/conv3_block3_preact_bn/FusedBatchNormV3/Offset", "shape": [512], "dtype": "float32"}, {"name": "StatefulPartitionedCall/model/conv4_block33_2_conv/Conv2D_weights", "shape": [3, 3, 256, 256], "dtype": "float32"}, {"name": "StatefulPartitionedCall/model/conv4_block33_2_conv/Conv2D_bn_offset", "shape": [256], "dtype": "float32"}, {"name": "StatefulPartitionedCall/model/conv4_block34_1_conv/Conv2D_weights", "shape": [1, 1, 1024, 256], "dtype": "float32"}, {"name": "StatefulPartitionedCall/model/conv3_block2_preact_bn/FusedBatchNormV3/Scaled", "shape": [512], "dtype": "float32"}, {"name": "StatefulPartitionedCall/model/conv4_block34_1_conv/Conv2D_bn_offset", "shape": [256], "dtype": "float32"}, {"name": "StatefulPartitionedCall/model/conv4_block34_2_conv/Conv2D_weights", "shape": [3, 3, 256, 256], "dtype": "float32"}, {"name": "StatefulPartitionedCall/model/conv4_block34_2_conv/Conv2D_bn_offset", "shape": [256], "dtype": "float32"}, {"name": "StatefulPartitionedCall/model/conv3_block2_preact_bn/FusedBatchNormV3/Offset", "shape": [512], "dtype": "float32"}, {"name": "StatefulPartitionedCall/model/conv4_block35_1_conv/Conv2D_weights", "shape": [1, 1, 1024, 256], "dtype": "float32"}, {"name": "StatefulPartitionedCall/model/conv4_block35_1_conv/Conv2D_bn_offset", "shape": [256], "dtype": "float32"}, {"name": "StatefulPartitionedCall/model/conv4_block35_2_conv/Conv2D_weights", "shape": [3, 3, 256, 256], "dtype": "float32"}, {"name": "StatefulPartitionedCall/model/conv3_block1_preact_bn/FusedBatchNormV3/Scaled", "shape": [256], "dtype": "float32"}, {"name": "StatefulPartitionedCall/model/conv4_block35_2_conv/Conv2D_bn_offset", "shape": [256], "dtype": "float32"}, {"name": "StatefulPartitionedCall/model/conv4_block36_1_conv/Conv2D_weights", "shape": [1, 1, 1024, 256], "dtype": "float32"}, {"name": "StatefulPartitionedCall/model/conv3_block1_preact_bn/FusedBatchNormV3/Offset", "shape": [256], "dtype": "float32"}, {"name": "StatefulPartitionedCall/model/conv4_block36_1_conv/Conv2D_bn_offset", "shape": [256], "dtype": "float32"}, {"name": "StatefulPartitionedCall/model/conv4_block36_2_conv/Conv2D_weights", "shape": [3, 3, 256, 256], "dtype": "float32"}, {"name": "StatefulPartitionedCall/model/conv4_block36_2_conv/Conv2D_bn_offset", "shape": [256], "dtype": "float32"}, {"name": "StatefulPartitionedCall/model/conv2_block3_preact_bn/FusedBatchNormV3/Scaled", "shape": [256], "dtype": "float32"}, {"name": "StatefulPartitionedCall/model/conv5_block1_1_conv/Conv2D_weights", "shape": [1, 1, 1024, 512], "dtype": "float32"}, {"name": "StatefulPartitionedCall/model/conv5_block1_1_conv/Conv2D_bn_offset", "shape": [512], "dtype": "float32"}, {"name": "StatefulPartitionedCall/model/conv2_block3_preact_bn/FusedBatchNormV3/Offset", "shape": [256], "dtype": "float32"}, {"name": "StatefulPartitionedCall/model/conv5_block1_2_conv/Conv2D_weights", "shape": [3, 3, 512, 512], "dtype": "float32"}, {"name": "StatefulPartitionedCall/model/conv5_block1_2_conv/Conv2D_bn_offset", "shape": [512], "dtype": "float32"}, {"name": "StatefulPartitionedCall/model/conv5_block2_1_conv/Conv2D_weights", "shape": [1, 1, 2048, 512], "dtype": "float32"}, {"name": "StatefulPartitionedCall/model/conv2_block2_preact_bn/FusedBatchNormV3/Scaled", "shape": [256], "dtype": "float32"}, {"name": "StatefulPartitionedCall/model/conv5_block2_1_conv/Conv2D_bn_offset", "shape": [512], "dtype": "float32"}, {"name": "StatefulPartitionedCall/model/conv5_block2_2_conv/Conv2D_weights", "shape": [3, 3, 512, 512], "dtype": "float32"}, {"name": "StatefulPartitionedCall/model/conv5_block2_2_conv/Conv2D_bn_offset", "shape": [512], "dtype": "float32"}, {"name": "StatefulPartitionedCall/model/conv2_block2_preact_bn/FusedBatchNormV3/Offset", "shape": [256], "dtype": "float32"}, {"name": "StatefulPartitionedCall/model/conv5_block3_1_conv/Conv2D_weights", "shape": [1, 1, 2048, 512], "dtype": "float32"}, {"name": "StatefulPartitionedCall/model/conv5_block3_1_conv/Conv2D_bn_offset", "shape": [512], "dtype": "float32"}, {"name": "StatefulPartitionedCall/model/conv5_block3_2_conv/Conv2D_weights", "shape": [3, 3, 512, 512], "dtype": "float32"}, {"name": "StatefulPartitionedCall/model/conv2_block1_preact_bn/FusedBatchNormV3/Scaled", "shape": [64], "dtype": "float32"}, {"name": "StatefulPartitionedCall/model/conv5_block3_2_conv/Conv2D_bn_offset", "shape": [512], "dtype": "float32"}, {"name": "StatefulPartitionedCall/model/conv2_block1_preact_bn/FusedBatchNormV3/Offset", "shape": [64], "dtype": "float32"}, {"name": "StatefulPartitionedCall/model/post_bn/FusedBatchNormV3/Scaled", "shape": [2048], "dtype": "float32"}, {"name": "StatefulPartitionedCall/model/post_bn/FusedBatchNormV3/Offset", "shape": [2048], "dtype": "float32"}, {"name": "StatefulPartitionedCall/model/conv5_block3_preact_bn/FusedBatchNormV3/Scaled", "shape": [2048], "dtype": "float32"}, {"name": "StatefulPartitionedCall/model/conv5_block3_preact_bn/FusedBatchNormV3/Offset", "shape": [2048], "dtype": "float32"}, {"name": "StatefulPartitionedCall/model/conv5_block2_preact_bn/FusedBatchNormV3/Scaled", "shape": [2048], "dtype": "float32"}, {"name": "StatefulPartitionedCall/model/conv5_block2_preact_bn/FusedBatchNormV3/Offset", "shape": [2048], "dtype": "float32"}, {"name": "StatefulPartitionedCall/model/conv5_block1_preact_bn/FusedBatchNormV3/Scaled", "shape": [1024], "dtype": "float32"}, {"name": "StatefulPartitionedCall/model/conv5_block1_preact_bn/FusedBatchNormV3/Offset", "shape": [1024], "dtype": "float32"}, {"name": "StatefulPartitionedCall/model/conv4_block36_preact_bn/FusedBatchNormV3/Scaled", "shape": [1024], "dtype": "float32"}, {"name": "StatefulPartitionedCall/model/conv4_block36_preact_bn/FusedBatchNormV3/Offset", "shape": [1024], "dtype": "float32"}, {"name": "StatefulPartitionedCall/model/conv4_block35_preact_bn/FusedBatchNormV3/Scaled", "shape": [1024], "dtype": "float32"}, {"name": "StatefulPartitionedCall/model/conv4_block35_preact_bn/FusedBatchNormV3/Offset", "shape": [1024], "dtype": "float32"}, {"name": "StatefulPartitionedCall/model/conv4_block34_preact_bn/FusedBatchNormV3/Scaled", "shape": [1024], "dtype": "float32"}, {"name": "StatefulPartitionedCall/model/conv4_block34_preact_bn/FusedBatchNormV3/Offset", "shape": [1024], "dtype": "float32"}, {"name": "StatefulPartitionedCall/model/conv4_block33_preact_bn/FusedBatchNormV3/Scaled", "shape": [1024], "dtype": "float32"}, {"name": "StatefulPartitionedCall/model/conv4_block33_preact_bn/FusedBatchNormV3/Offset", "shape": [1024], "dtype": "float32"}, {"name": "StatefulPartitionedCall/model/conv4_block32_preact_bn/FusedBatchNormV3/Scaled", "shape": [1024], "dtype": "float32"}, {"name": "StatefulPartitionedCall/model/conv4_block32_preact_bn/FusedBatchNormV3/Offset", "shape": [1024], "dtype": "float32"}, {"name": "StatefulPartitionedCall/model/conv4_block31_preact_bn/FusedBatchNormV3/Scaled", "shape": [1024], "dtype": "float32"}, {"name": "StatefulPartitionedCall/model/conv4_block31_preact_bn/FusedBatchNormV3/Offset", "shape": [1024], "dtype": "float32"}, {"name": "StatefulPartitionedCall/model/conv4_block30_preact_bn/FusedBatchNormV3/Scaled", "shape": [1024], "dtype": "float32"}, {"name": "StatefulPartitionedCall/model/conv4_block30_preact_bn/FusedBatchNormV3/Offset", "shape": [1024], "dtype": "float32"}, {"name": "StatefulPartitionedCall/model/conv4_block29_preact_bn/FusedBatchNormV3/Scaled", "shape": [1024], "dtype": "float32"}, {"name": "StatefulPartitionedCall/model/conv4_block29_preact_bn/FusedBatchNormV3/Offset", "shape": [1024], "dtype": "float32"}, {"name": "StatefulPartitionedCall/model/conv4_block28_preact_bn/FusedBatchNormV3/Scaled", "shape": [1024], "dtype": "float32"}, {"name": "StatefulPartitionedCall/model/conv4_block28_preact_bn/FusedBatchNormV3/Offset", "shape": [1024], "dtype": "float32"}, {"name": "StatefulPartitionedCall/model/conv4_block27_preact_bn/FusedBatchNormV3/Scaled", "shape": [1024], "dtype": "float32"}, {"name": "StatefulPartitionedCall/model/conv4_block27_preact_bn/FusedBatchNormV3/Offset", "shape": [1024], "dtype": "float32"}]}]}